models/v2/lancelot.tflite (tflite, 75616 bytes, 18 tensors)

tfl.pseudo_qconst1 i1 [1, 1088] scale=0.0010078978 zero_point=0
-0.019150058 -0.05845807 -0.0030236933 -0.03225273 -0.03729222 -0.026205342 -0.019150058 -0.062489662
0.034268524 0.0070552845 0.0060473867 -0.05039489 -0.056442276 -0.042331707 -0.07357654 0.022173751
0.043339603 -0.091718696 0.03729222 -0.049386993 -0.0030236933 -0.021165853 -0.03225273 -0.0060473867
0.017134262 -0.08264762 0.023181649 0.016126364 -0.061481766 0.019150058 -0.083655514 0.03326063
0.02721324 0.030236933 -0.0070552845 -0.047371194 0.043339603 -0.05845807 -0.10179768 -0.03628432
-0.089702904 -0.089702904 -0.083655514 0.015118467 0.0030236933 -0.004031591 -0.017134262 0.052410685
0.0030236933 0.011086876 -0.060473867 -0.09978188 -0.098773986 -0.09776609 -0.08264762 -0.021165853
-0.042331707 -0.07256864 0.046363298 0.060473867 -0.046363298 -0.124979325 0.045355402 -0.12800302
-0.010078978 -0.11187665 -0.10482137 -0.004031591 0.029229036 -0.07156074 -0.091718696 -0.052410685
0.005039489 -0.059465967 0.017134262 -0.014110569 -0.045355402 -0.062489662 -0.05039489 -0.07458444
0.030236933 -0.014110569 -0.016126364 -0.062489662 -0.049386993 -0.098773986 -0.05039489 0.07055284
-0.01814216 -0.086679205 -0.06450546 -0.07458444 0.014110569 -0.057450175 -0.05845807 0.01814216
-0.021165853 -0.038300116 0.01814216 -0.038300116 0.06551336 -0.03527642 0.02721324 -0.12296353
-0.08466341 -0.07357654 -0.034268524 0.045355402 -0.04132381 -0.023181649 0.0060473867 0.045355402
0.045355402 0.030236933 0.010078978 0.047371194 -0.10986086 0.0020157956 -0.0020157956 -0.0010078978
-0.016126364 -0.053418584 0.028221138 0.013102671 -0.11490035 -0.025197444 -0.025197444 -0.013102671
-0.08466341 -0.010078978 -0.060473867 -0.07156074 0.034268524 -0.06853705 -0.0030236933 -0.024189547
0.045355402 -0.023181649 0.013102671 -0.091718696 -0.08063182 -0.10280557 0.024189547 0.01814216
-0.02721324 0.0030236933 -0.090710804 -0.093734495 -0.004031591 -0.08063182 0.015118467 -0.03930801
-0.048379093 -0.093734495 -0.024189547 -0.052410685 0.07055284 -0.034268524 -0.059465967 -0.049386993
-0.029229036 -0.055434376 0.023181649 -0.08063182 0.06349756 -0.06954495 0.013102671 -0.0070552845
0.03729222 -0.060473867 -0.038300116 0.0030236933 -0.09675819 -0.031244831 0.0 -0.057450175
-0.03225273 0.008063182 -0.042331707 -0.08466341 0.021165853 0.028221138 -0.028221138 -0.038300116
0.021165853 -0.0060473867 -0.043339603 -0.0020157956 -0.023181649 -0.10280557 -0.004031591 -0.038300116
-0.07861602 -0.10179768 -0.048379093 0.005039489 0.08163972 0.015118467 0.023181649 -0.11086875
-0.031244831 -0.060473867 -0.10381347 0.0070552845 0.00907108 0.004031591 -0.048379093 -0.015118467
-0.0030236933 -0.038300116 -0.06853705 -0.10885296 -0.04031591 -0.087687105 -0.091718696 -0.056442276
-0.042331707 -0.020157956 0.004031591 -0.090710804 0.044347502 -0.048379093 -0.05442648 0.059465967
0.047371194 -0.06551336 0.028221138 -0.03930801 0.08264762 -0.02721324 0.012094773 -0.083655514
-0.012094773 0.008063182 -0.07055284 0.0 -0.07357654 0.03527642 -0.03326063 0.048379093
0.05845807 0.06652126 -0.05845807 -0.023181649 -0.07256864 0.024189547 -0.05845807 -0.09474239
-0.07357654 0.0060473867 0.008063182 -0.005039489 -0.086679205 0.0010078978 -0.07962392 -0.08063182
00000000: edc6 fde0 dbe6 edc2 2207 06ce c8d6 b716
00000010: 2ba5 25cf fdeb e0fa 11ae 1710 c313 ad21
00000020: 1b1e f9d1 2bc6 9bdc a7a7 ad0f 03fc ef34
00000030: 030b c49d 9e9f aeeb d6b8 2e3c d284 2d81
00000040: f691 98fc 1db9 a5cc 05c5 11f2 d3c2 ceb6
00000050: 1ef2 f0c2 cf9e ce46 eeaa c0b6 0ec7 c612
00000060: ebda 12da 41dd 1b86 acb7 de2d d7e9 062d
00000070: 2d1e 0a2f 9302 feff f0cb 1c0d 8ee7 e7f3
00000080: acf6 c4b9 22bc fde8 2de9 0da5 b09a 1812
00000090: e503 a6a3 fcb0 0fd9 d0a3 e8cc 46de c5cf
000000a0: e3c9 17b0 3fbb 0df9 25c4 da03 a0e1 00c7
000000b0: e008 d6ac 151c e4da 15fa d5fe e99a fcda
000000c0: b29b d005 510f 1792 e1c4 9907 0904 d0f1
000000d0: fdda bc94 d8a9 a5c8 d6ec 04a6 2cd0 ca3b
000000e0: 2fbf 1cd9 52e5 0cad f408 ba00 b723 df30
000000f0: 3a42 c6e9 b818 c6a2 b706 08fb aa01 b1b0

tfl.pseudo_qconst3 i1 [64, 1, 1, 64]
84 86 -25 33 81 -66 -49 -31
-114 30 98 -34 7 -53 -122 82
-25 -47 -16 -20 -21 -20 71 -47
75 16 -47 49 -105 1 -2 47
-40 -90 95 -34 -91 37 -70 -27
1 47 127 60 -66 21 -65 76
103 -68 70 70 22 117 -54 -88
25 -24 -77 -77 2 32 85 -15
46 -8 -69 -27 -94 58 -100 -86
-103 -17 -83 98 -114 -72 -18 56
36 -127 -73 52 122 17 -44 40
-78 44 -17 51 -3 -65 22 -14
-91 -88 -19 -35 115 21 10 40
-26 -44 82 -92 -86 -67 111 -56
-78 59 -60 97 -11 -82 -68 -39
0 85 52 -88 -4 38 77 -10
-23 -25 87 -45 10 71 33 64
3 -41 45 -80 -79 0 68 49
22 13 -36 41 59 79 -81 -3
-66 12 11 -92 -32 -12 91 -88
35 -99 -62 -11 93 87 54 42
103 121 54 -67 56 26 57 82
97 -79 77 -87 3 112 -66 34
-40 67 77 -9 97 -46 -127 82
22 -19 -21 57 81 37 61 -94
32 -86 16 74 107 110 77 66
82 -106 -36 59 -70 -76 -57 -119
-89 50 -5 -97 -113 10 24 -50
74 116 -94 -40 -58 -101 -93 34
-41 82 -29 48 103 -79 87 11
37 34 63 86 -50 41 22 127
-77 109 -105 -7 20 44 72 68
00000000: 5456 e721 51be cfe1 8e1e 62de 07cb 8652
00000010: e7d1 f0ec ebec 47d1 4b10 d131 9701 fe2f
00000020: d8a6 5fde a525 bae5 012f 7f3c be15 bf4c
00000030: 67bc 4646 1675 caa8 19e8 b3b3 0220 55f1
00000040: 2ef8 bbe5 a23a 9caa 99ef ad62 8eb8 ee38
00000050: 2481 b734 7a11 d428 b22c ef33 fdbf 16f2
00000060: a5a8 eddd 7315 0a28 e6d4 52a4 aabd 6fc8
00000070: b23b c461 f5ae bcd9 0055 34a8 fc26 4df6
00000080: e9e7 57d3 0a47 2140 03d7 2db0 b100 4431
00000090: 160d dc29 3b4f affd be0c 0ba4 e0f4 5ba8
000000a0: 239d c2f5 5d57 362a 6779 36bd 381a 3952
000000b0: 61b1 4da9 0370 be22 d843 4df7 61d2 8152
000000c0: 16ed eb39 5125 3da2 20aa 104a 6b6e 4d42
000000d0: 5296 dc3b bab4 c789 a732 fb9f 8f0a 18ce
000000e0: 4a74 a2d8 c69b a322 d752 e330 67b1 570b
000000f0: 2522 3f56 ce29 167f b36d 97f9 142c 4844

tfl.pseudo_qconst5 i1 [1, 23, 1, 64]
-38 32 -53 -47 13 45 64 -87
42 -25 -98 27 -127 -47 45 -93
127 -25 -7 35 -127 49 37 75
-82 -45 7 -100 -11 -83 24 -113
93 -127 -33 -45 51 58 34 65
-28 58 96 -47 117 -42 -53 -16
127 42 -48 -39 -43 -27 19 64
-1 127 2 35 -81 13 -9 -9
90 -106 -35 91 80 76 -18 77
52 -55 -85 59 -37 21 -23 71
30 91 18 43 -101 113 -85 59
-127 50 -37 -99 57 -11 100 -9
-5 -98 8 -54 5 4 20 70
-67 113 48 -1 55 -91 -57 -64
106 52 -69 -81 -106 -87 -11 64
-1 42 -71 109 -61 23 76 5
-2 -58 -24 2 112 99 -127 -28
-24 -71 -59 29 -60 -37 -35 -5
-90 -38 -66 -19 -20 61 -35 61
-25 -127 -49 -53 127 23 33 -124
63 34 37 42 46 77 -31 105
33 8 127 60 76 98 -63 -70
25 127 88 -5 -120 -45 9 3
77 25 -127 74 -25 -41 -79 -98
-23 25 -90 -119 85 44 40 22
10 3 -1 56 -56 -54 -90 -65
-12 74 35 94 23 -102 -24 54
10 -96 -6 11 92 98 69 -83
120 61 38 30 7 8 40 1
-45 -61 102 35 -27 5 -21 3
7 111 8 -106 -36 49 9 -44
23 -17 -44 97 -12 114 107 -73
00000000: da20 cbd1 0d2d 40a9 2ae7 9e1b 81d1 2da3
00000010: 7fe7 f923 8131 254b aed3 079c f5ad 188f
00000020: 5d81 dfd3 333a 2241 e43a 60d1 75d6 cbf0
00000030: 7f2a d0d9 d5e5 1340 ff7f 0223 af0d f7f7
00000040: 5a96 dd5b 504c ee4d 34c9 ab3b db15 e947
00000050: 1e5b 122b 9b71 ab3b 8132 db9d 39f5 64f7
00000060: fb9e 08ca 0504 1446 bd71 30ff 37a5 c7c0
00000070: 6a34 bbaf 96a9 f540 ff2a b96d c317 4c05
00000080: fec6 e802 7063 81e4 e8b9 c51d c4db ddfb
00000090: a6da beed ec3d dd3d e781 cfcb 7f17 2184
000000a0: 3f22 252a 2e4d e169 2108 7f3c 4c62 c1ba
000000b0: 197f 58fb 88d3 0903 4d19 814a e7d7 b19e
000000c0: e919 a689 552c 2816 0a03 ff38 c8ca a6bf
000000d0: f44a 235e 179a e836 0aa0 fa0b 5c62 45ad
000000e0: 783d 261e 0708 2801 d3c3 6623 e505 eb03
000000f0: 076f 0896 dc31 09d4 17ef d461 f472 6bb7

tfl.pseudo_qconst7 i1 [64, 1, 1, 64]
-61 -32 37 35 13 67 -37 -48
-46 101 -69 -44 -68 -100 26 -73
34 48 48 -36 25 -77 -76 38
-85 84 45 95 -79 98 127 48
81 65 -22 59 66 20 75 52
24 47 86 -95 -3 27 -59 -105
24 4 102 -67 -80 -1 62 37
-71 -9 61 18 -59 46 16 98
23 51 46 -80 101 11 -25 107
13 84 -8 -18 -7 48 -39 72
74 -3 32 -81 119 13 -65 -40
45 -25 -68 -27 -10 5 52 8
94 42 105 87 111 21 86 117
-32 78 -91 -69 94 0 -77 72
-55 -34 -24 -24 -52 67 93 41
51 -69 18 -65 -127 94 -49 66
-78 16 -18 -60 30 81 -66 -15
33 61 67 -53 20 69 2 76
39 34 -63 19 -11 32 69 94
51 -28 103 -39 -66 -15 -9 -27
19 -61 -74 76 -27 59 69 74
-34 56 62 1 18 -15 -80 52
86 47 -18 127 77 76 -84 86
-15 -52 59 7 80 16 -44 75
-47 -41 16 -78 39 30 58 34
81 17 108 53 -36 -70 22 27
-70 8 -87 -57 96 5 -16 -1
49 29 -15 87 -42 127 10 9
6 18 63 -14 -67 57 -31 -67
117 -70 117 -21 66 7 -34 -89
-16 51 118 12 -16 55 28 75
-33 28 33 71 23 -58 76 93
00000000: c3e0 2523 0d43 dbd0 d265 bbd4 bc9c 1ab7
00000010: 2230 30dc 19b3 b426 ab54 2d5f b162 7f30
00000020: 5141 ea3b 4214 4b34 182f 56a1 fd1b c597
00000030: 1804 66bd b0ff 3e25 b9f7 3d12 c52e 1062
00000040: 1733 2eb0 650b e76b 0d54 f8ee f930 d948
00000050: 4afd 20af 770d bfd8 2de7 bce5 f605 3408
00000060: 5e2a 6957 6f15 5675 e04e a5bb 5e00 b348
00000070: c9de e8e8 cc43 5d29 33bb 12bf 815e cf42
00000080: b210 eec4 1e51 bef1 213d 43cb 1445 024c
00000090: 2722 c113 f520 455e 33e4 67d9 bef1 f7e5
000000a0: 13c3 b64c e53b 454a de38 3e01 12f1 b034
000000b0: 562f ee7f 4d4c ac56 f1cc 3b07 5010 d44b
000000c0: d1d7 10b2 271e 3a22 5111 6c35 dcba 161b
000000d0: ba08 a9c7 6005 f0ff 311d f157 d67f 0a09
000000e0: 0612 3ff2 bd39 e1bd 75ba 75eb 4207 dea7
000000f0: f033 760c f037 1c4b df1c 2147 17c6 4c5d

tfl.pseudo_qconst9 i1 [1, 15, 1, 32]
109 89 41 -123 -63 49 86 -33
-8 3 46 -66 -18 127 55 87
-81 33 -42 -47 111 20 -46 4
59 -9 26 -3 -1 -87 -30 -68
14 55 -4 -119 -38 27 -26 -127
-34 82 54 -38 -103 -17 20 49
8 63 -127 30 19 -56 -127 62
-2 53 -75 59 -7 -68 39 75
-56 -97 -89 -127 127 109 44 -67
98 127 32 108 -53 -77 72 -20
-74 51 -21 -75 125 30 -115 -127
101 -5 -58 -75 -40 28 86 45
-127 -14 20 -108 -35 90 -29 62
127 10 -64 101 -24 69 -114 25
-32 33 -63 -60 -22 61 7 -43
127 -69 58 -80 -98 7 -61 -127
76 -10 58 13 59 69 -58 49
95 39 -27 -37 -58 -97 69 17
-30 21 -64 6 45 -10 -68 44
90 -50 114 -100 -87 -125 103 32
68 121 81 30 52 -22 85 -41
3 109 127 -50 104 -66 77 82
48 20 -10 -94 -79 -82 -14 -42
75 78 52 -59 38 -127 -18 -1
32 -108 -49 -5 84 73 2 -68
98 17 66 48 127 22 -120 42
-57 26 -66 -127 -101 -46 127 56
-28 104 87 57 127 26 27 -27
-40 127 0 -28 13 22 50 -60
73 81 -48 45 96 -22 -127 48
127 -3 -39 -72 9 7 -68 -46
-80 23 127 -25 71 114 55 67
00000000: 6d59 2985 c131 56df f803 2ebe ee7f 3757
00000010: af21 d6d1 6f14 d204 3bf7 1afd ffa9 e2bc
00000020: 0e37 fc89 da1b e681 de52 36da 99ef 1431
00000030: 083f 811e 13c8 813e fe35 b53b f9bc 274b
00000040: c89f a781 7f6d 2cbd 627f 206c cbb3 48ec
00000050: b633 ebb5 7d1e 8d81 65fb c6b5 d81c 562d
00000060: 81f2 1494 dd5a e33e 7f0a c065 e845 8e19
00000070: e021 c1c4 ea3d 07d5 7fbb 3ab0 9e07 c381
00000080: 4cf6 3a0d 3b45 c631 5f27 e5db c69f 4511
00000090: e215 c006 2df6 bc2c 5ace 729c a983 6720
000000a0: 4479 511e 34ea 55d7 036d 7fce 68be 4d52
000000b0: 3014 f6a2 b1ae f2d6 4b4e 34c5 2681 eeff
000000c0: 2094 cffb 5449 02bc 6211 4230 7f16 882a
000000d0: c71a be81 9bd2 7f38 e468 5739 7f1a 1be5
000000e0: d87f 00e4 0d16 32c4 4951 d02d 60ea 8130
000000f0: 7ffd d9b8 0907 bcd2 b017 7fe7 4772 3743

tfl.pseudo_qconst11 i1 [1, 9, 1, 32]
-3 -127 0 61 -119 127 -56 -105
126 -61 -22 -2 76 36 -73 86
123 -47 -119 -127 -9 56 -40 98
79 -50 -127 -58 119 69 -127 -127
-12 -118 -65 10 92 -74 48 -13
-126 39 -27 -34 24 -40 -127 52
-49 -67 -57 -22 66 -55 4 -31
-51 -18 59 53 31 64 -16 -124
71 21 -18 -29 110 -34 124 86
49 -35 92 -11 -127 15 59 34
89 23 78 -47 122 115 -74 127
18 1 -43 -95 -80 -91 90 -9
-66 -79 72 55 16 75 -76 58
3 85 75 33 -37 -127 89 30
88 127 42 -16 74 127 -19 51
-127 -31 77 -61 42 63 -84 -45
-38 -11 -83 -60 -115 13 -63 -121
116 -7 -54 12 31 3 -115 -52
29 -44 66 50 -71 -46 5 2
20 -127 43 69 51 -35 -36 -43
-98 22 45 7 -127 73 -112 33
127 -98 -53 -32 21 -65 -67 83
-20 -98 -35 -4 -127 29 95 -96
-13 -84 -21 42 -58 -99 48 -79
22 38 12 94 43 112 35 -125
-46 -68 -127 -32 62 124 -6 -127
65 68 125 62 12 57 -127 -41
107 -70 -54 -67 127 -2 -118 47
-127 97 -56 42 100 91 -53 -123
44 17 -30 19 54 -2 -54 -91
127 29 127 12 8 -78 -28 69
112 93 -88 -5 -37 -123 -90 41
00000000: fd81 003d 897f c897 7ec3 eafe 4c24 b756
00000010: 7bd1 8981 f738 d862 4fce 81c6 7745 8181
00000020: f48a bf0a 5cb6 30f3 8227 e5de 18d8 8134
00000030: cfbd c7ea 42c9 04e1 cdee 3b35 1f40 f084
00000040: 4715 eee3 6ede 7c56 31dd 5cf5 810f 3b22
00000050: 5917 4ed1 7a73 b67f 1201 d5a1 b0a5 5af7
00000060: beb1 4837 104b b43a 0355 4b21 db81 591e
00000070: 587f 2af0 4a7f ed33 81e1 4dc3 2a3f acd3
00000080: daf5 adc4 8d0d c187 74f9 ca0c 1f03 8dcc
00000090: 1dd4 4232 b9d2 0502 1481 2b45 33dd dcd5
000000a0: 9e16 2d07 8149 9021 7f9e cbe0 15bf bd53
000000b0: ec9e ddfc 811d 5fa0 f3ac eb2a c69d 30b1
000000c0: 1626 0c5e 2b70 2383 d2bc 81e0 3e7c fa81
000000d0: 4144 7d3e 0c39 81d7 6bba cabd 7ffe 8a2f
000000e0: 8161 c82a 645b cb85 2c11 e213 36fe caa5
000000f0: 7f1d 7f0c 08b2 e445 705d a8fb db85 a629

tfl.pseudo_qconst13 i1 [64, 1, 1, 64]
-90 55 -27 -72 -19 52 -18 105
-2 38 -33 -16 -64 32 -27 -9
-23 15 127 119 93 117 -66 87
-50 -46 -18 -46 -31 37 75 -25
-14 87 -32 -2 -17 -23 71 -41
82 103 12 -33 54 37 68 3
-44 -66 26 75 7 -39 -86 40
1 21 32 -29 32 56 39 40
15 39 96 93 -44 54 -47 -75
57 2 -96 -5 74 -84 -84 -127
45 48 -38 -19 -23 64 -23 -56
-93 -43 66 64 -39 -70 -16 23
108 -31 -7 54 -63 9 63 62
47 114 -25 21 3 65 38 -24
-59 -17 45 1 20 16 88 70
50 -40 39 19 -53 -41 69 62
28 3 71 -43 -35 14 93 0
37 81 -59 -52 63 127 -31 12
-20 79 -88 -60 72 -54 -28 38
50 -118 51 33 37 -14 38 36
-108 -47 -81 44 -57 26 40 29
-5 36 34 -63 20 49 39 -59
-89 -13 35 26 35 -44 78 82
-79 10 -27 28 -61 13 84 -31
94 -28 -82 -7 62 13 -48 36
-38 76 -4 59 -77 -6 -47 41
-26 4 -8 0 19 -23 85 31
-32 85 -38 -63 67 51 42 -12
60 -108 15 34 82 28 2 -49
34 -82 -127 29 26 -79 -46 -111
-24 -67 -66 116 50 -38 23 -69
-125 -90 -23 -35 24 -35 79 -49
00000000: a637 e5b8 ed34 ee69 fe26 dff0 c020 e5f7
00000010: e90f 7f77 5d75 be57 ced2 eed2 e125 4be7
00000020: f257 e0fe efe9 47d7 5267 0cdf 3625 4403
00000030: d4be 1a4b 07d9 aa28 0115 20e3 2038 2728
00000040: 0f27 605d d436 d1b5 3902 a0fb 4aac ac81
00000050: 2d30 daed e940 e9c8 a3d5 4240 d9ba f017
00000060: 6ce1 f936 c109 3f3e 2f72 e715 0341 26e8
00000070: c5ef 2d01 1410 5846 32d8 2713 cbd7 453e
00000080: 1c03 47d5 dd0e 5d00 2551 c5cc 3f7f e10c
00000090: ec4f a8c4 48ca e426 328a 3321 25f2 2624
000000a0: 94d1 af2c c71a 281d fb24 22c1 1431 27c5
000000b0: a7f3 231a 23d4 4e52 b10a e51c c30d 54e1
000000c0: 5ee4 aef9 3e0d d024 da4c fc3b b3fa d129
000000d0: e604 f800 13e9 551f e055 dac1 4333 2af4
000000e0: 3c94 0f22 521c 02cf 22ae 811d 1ab1 d291
000000f0: e8bd be74 32da 17bb 83a6 e9dd 18dd 4fcf

tfl.pseudo_qconst15 i1 [1, 11, 1, 32]
88 -76 40 8 39 -34 -127 86
-2 127 -94 28 13 -33 -73 -12
79 4 68 11 -85 -9 66 -70
-68 -52 -72 -100 103 -15 28 8
10 56 -56 49 36 95 -22 32
-87 25 -97 65 -127 106 -101 12
-32 -45 127 -39 -72 26 10 -1
96 -69 -121 11 -79 -49 -6 127
127 39 -54 67 -45 -116 54 -110
48 65 -58 58 93 45 -110 -12
29 -48 -45 -74 127 -62 -43 -126
127 -127 76 -98 -49 -60 -72 114
-15 -88 127 -49 71 107 2 -78
24 29 -127 -83 115 4 -127 -14
127 -82 44 -44 69 -86 59 96
17 102 48 -76 -70 -58 73 -90
-112 -65 33 68 115 39 5 -7
127 104 -37 -87 -43 2 -46 -127
123 51 -1 -21 30 -49 -127 75
-48 -75 127 64 16 -33 -56 20
-104 -48 -54 7 127 44 -76 -56
-17 -61 87 -127 44 127 -28 -30
-79 80 78 -103 25 70 76 127
28 -34 -59 82 -34 -11 -103 -49
102 -127 71 -127 5 99 45 115
-4 -77 86 42 87 -96 18 -11
111 -88 -46 -31 -37 -12 -117 -105
-10 10 -30 14 79 -68 -104 -47
126 -49 -99 54 -23 127 99 -51
-58 3 60 -85 -25 53 54 92
28 41 23 77 27 37 19 -3
-12 106 -99 46 127 -19 28 -107
00000000: 58b4 2808 27de 8156 fe7f a21c 0ddf b7f4
00000010: 4f04 440b abf7 42ba bccc b89c 67f1 1c08
00000020: 0a38 c831 245f ea20 a919 9f41 816a 9b0c
00000030: e0d3 7fd9 b81a 0aff 60bb 870b b1cf fa7f
00000040: 7f27 ca43 d38c 3692 3041 c63a 5d2d 92f4
00000050: 1dd0 d3b6 7fc2 d582 7f81 4c9e cfc4 b872
00000060: f1a8 7fcf 476b 02b2 181d 81ad 7304 81f2
00000070: 7fae 2cd4 45aa 3b60 1166 30b4 bac6 49a6
00000080: 90bf 2144 7327 05f9 7f68 dba9 d502 d281
00000090: 7b33 ffeb 1ecf 814b d0b5 7f40 10df c814
000000a0: 98d0 ca07 7f2c b4c8 efc3 5781 2c7f e4e2
000000b0: b150 4e99 1946 4c7f 1cde c552 def5 99cf
000000c0: 6681 4781 0563 2d73 fcb3 562a 57a0 12f5
000000d0: 6fa8 d2e1 dbf4 8b97 f60a e20e 4fbc 98d1
000000e0: 7ecf 9d36 e97f 63cd c603 3cab e735 365c
000000f0: 1c29 174d 1b25 13fd f46a 9d2e 7fed 1c95

tfl.pseudo_qconst17 i1 [1, 7, 1, 32]
-25 -36 -127 107 93 47 31 35
126 -89 14 53 -89 -38 127 -66
-12 96 118 -18 98 30 -60 -8
9 -20 125 79 -102 -34 48 -82
97 -14 -71 86 93 -58 -18 114
-38 -77 55 -4 63 95 12 -98
81 27 30 -101 27 -54 -127 -127
116 -118 -26 74 18 -4 -127 86
-120 -13 28 49 -23 81 101 -57
103 99 -77 -127 127 59 -88 -127
-127 -90 74 37 127 -127 13 -42
127 -127 92 56 -40 -53 -62 104
-71 -127 -60 -53 -127 -127 127 -36
127 -56 75 -19 18 45 -49 -75
-107 -13 -74 -67 100 109 -71 -106
-49 -19 118 127 -127 88 -102 -6
11 41 103 -127 -1 45 -29 -127
-127 127 127 39 56 -54 72 -100
-102 109 30 93 -38 103 94 -4
9 52 3 -32 30 29 -34 -24
95 77 44 -96 33 -6 -43 -113
100 -1 -59 53 -19 -127 51 -69
116 127 -127 127 74 -91 -9 -80
45 -72 96 -105 -124 -127 43 -103
127 87 79 86 4 -11 -42 102
83 -63 -54 30 35 -67 -89 -76
79 111 -76 106 -52 -65 -118 66
-92 79 127 -68 -102 -109 13 -127
00000000: e7dc 816b 5d2f 1f23 7ea7 0e35 a7da 7fbe
00000010: f460 76ee 621e c4f8 09ec 7d4f 9ade 30ae
00000020: 61f2 b956 5dc6 ee72 dab3 37fc 3f5f 0c9e
00000030: 511b 1e9b 1bca 8181 748a e64a 12fc 8156
00000040: 88f3 1c31 e951 65c7 6763 b381 7f3b a881
00000050: 81a6 4a25 7f81 0dd6 7f81 5c38 d8cb c268
00000060: b981 c4cb 8181 7fdc 7fc8 4bed 122d cfb5
00000070: 95f3 b6bd 646d b996 cfed 767f 8158 9afa
00000080: 0b29 6781 ff2d e381 817f 7f27 38ca 489c
00000090: 9a6d 1e5d da67 5efc 0934 03e0 1e1d dee8
000000a0: 5f4d 2ca0 21fa d58f 64ff c535 ed81 33bb
000000b0: 747f 817f 4aa5 f7b0 2db8 6097 8481 2b99
000000c0: 7f57 4f56 04f5 d666 53c1 ca1e 23bd a7b4
000000d0: 4f6f b46a ccbf 8a42 a44f 7fbc 9a93 0d81

tfl.pseudo_qconst19 i1 [64, 1, 1, 32]
22 -36 64 -3 -25 -57 -55 88
93 -58 16 -124 -56 106 -118 -32
-116 -39 9 71 76 78 79 84
41 127 24 20 81 106 -46 37
-18 58 -40 -16 -111 -56 127 65
67 62 104 -55 35 54 75 63
46 48 -18 -7 -107 16 -7 -56
-81 -78 -87 30 -55 -10 -44 100
91 -82 106 -55 -68 74 48 11
3 -28 -68 -1 44 127 -49 88
9 89 -113 -111 -73 32 48 23
48 2 102 25 -97 37 17 -97
-48 -20 115 -58 -11 -24 18 43
46 22 84 -6 7 -28 44 -46
120 75 127 31 -33 -58 -63 -103
-85 47 -23 -14 81 -66 44 -49
-18 -72 -39 47 -69 98 -97 -83
127 46 43 -99 -27 94 -69 -17
-96 62 11 54 24 40 -78 18
67 123 -115 40 99 -96 17 -53
-68 76 55 99 -55 -118 99 -121
-49 52 74 -81 -52 -83 -96 105
18 -41 75 -113 31 79 2 -127
18 37 -84 7 31 75 81 94
61 -37 -49 16 73 27 71 34
-82 127 -53 -58 10 -57 -74 -35
-31 -10 -27 18 -69 73 -10 -18
-9 -27 -32 -98 -121 -35 90 -61
-26 -110 -41 -19 -118 111 62 -56
67 127 103 -52 16 61 -69 88
-53 -110 4 26 112 -53 -12 -39
68 -72 -14 -90 63 70 -106 100
00000000: 16dc 40fd e7c7 c958 5dc6 1084 c86a 8ae0
00000010: 8cd9 0947 4c4e 4f54 297f 1814 516a d225
00000020: ee3a d8f0 91c8 7f41 433e 68c9 2336 4b3f
00000030: 2e30 eef9 9510 f9c8 afb2 a91e c9f6 d464
00000040: 5bae 6ac9 bc4a 300b 03e4 bcff 2c7f cf58
00000050: 0959 8f91 b720 3017 3002 6619 9f25 119f
00000060: d0ec 73c6 f5e8 122b 2e16 54fa 07e4 2cd2
00000070: 784b 7f1f dfc6 c199 ab2f e9f2 51be 2ccf
00000080: eeb8 d92f bb62 9fad 7f2e 2b9d e55e bbef
00000090: a03e 0b36 1828 b212 437b 8d28 63a0 11cb
000000a0: bc4c 3763 c98a 6387 cf34 4aaf ccad a069
000000b0: 12d7 4b8f 1f4f 0281 1225 ac07 1f4b 515e
000000c0: 3ddb cf10 491b 4722 ae7f cbc6 0ac7 b6dd
000000d0: e1f6 e512 bb49 f6ee f7e5 e09e 87dd 5ac3
000000e0: e692 d7ed 8a6f 3ec8 437f 67cc 103d bb58
000000f0: cb92 041a 70cb f4d9 44b8 f2a6 3f46 9664

tfl.pseudo_qconst21 i1 [1, 5, 1, 32]
-41 -65 52 103 -108 127 -118 20
127 -20 -127 -80 -22 -70 -127 -91
-43 127 -44 -111 -27 14 110 127
-24 47 -70 -71 -23 -1 -109 38
28 127 43 126 -81 -41 -127 -127
3 56 -121 127 -127 -75 64 -61
109 28 -119 -127 -16 -14 32 7
-127 -49 4 76 -60 99 89 85
127 -32 91 127 -127 -60 -94 93
-124 37 -11 74 -61 127 4 85
-91 75 8 83 30 44 -127 82
-18 -19 127 12 -47 127 -12 -59
-21 -109 127 120 41 -80 7 27
24 -127 24 -87 -69 123 -100 -127
92 -16 38 -118 27 -52 -16 36
-101 -127 -34 127 -90 96 -127 -127
38 -52 115 -106 92 22 -46 44
-3 -117 4 -81 -123 32 -38 0
127 72 127 -18 127 -127 -115 5
18 -102 72 -123 127 85 68 -91
00000000: d7bf 3467 947f 8a14 7fec 81b0 eaba 81a5
00000010: d57f d491 e50e 6e7f e82f bab9 e9ff 9326
00000020: 1c7f 2b7e afd7 8181 0338 877f 81b5 40c3
00000030: 6d1c 8981 f0f2 2007 81cf 044c c463 5955
00000040: 7fe0 5b7f 81c4 a25d 8425 f54a c37f 0455
00000050: a54b 0853 1e2c 8152 eeed 7f0c d17f f4c5
00000060: eb93 7f78 29b0 071b 1881 18a9 bb7b 9c81
00000070: 5cf0 268a 1bcc f024 9b81 de7f a660 8181
00000080: 26cc 7396 5c16 d22c fd8b 04af 8520 da00
00000090: 7f48 7fee 7f81 8d05 129a 4885 7f55 44a5

tfl.pseudo_qconst23 i1 [32, 5, 1, 40]
113 36 -23 -37 -74 -66 47 12
86 17 -51 -21 47 6 -27 13
52 66 28 44 50 50 7 -8
67 -14 41 80 76 -12 43 82
15 81 -17 79 -60 54 58 -45
64 -49 115 -47 32 -92 18 64
53 42 79 -9 -40 -50 57 19
5 81 90 48 52 -8 -51 7
-55 -7 24 -15 23 -7 -13 76
-36 74 66 -44 -12 4 -25 51
72 6 1 -39 59 45 109 36
79 -96 11 38 26 10 -9 -31
-55 -86 -53 84 -15 -81 -66 28
-81 -47 9 3 -55 -17 39 -39
20 5 0 -59 -35 53 -18 74
103 5 -7 71 -32 10 -14 23
1 -49 -18 -82 18 -1 -37 5
-61 -59 29 -16 -74 -53 -31 -36
-39 -57 -45 25 34 -54 55 43
-22 -32 109 -32 53 12 74 53
127 7 64 86 59 66 84 97
-58 -23 91 -48 -38 -89 -51 36
39 -3 38 -49 10 0 -88 -25
-56 -8 -49 -42 -24 -94 -2 -21
16 64 19 -39 -66 35 63 32
-39 -68 -120 25 -53 -26 -53 25
-24 39 61 10 111 15 46 -54
66 64 6 -76 37 57 88 103
39 -26 -36 -67 3 -84 89 107
70 8 64 42 117 22 26 -74
10 -127 -105 83 77 10 -15 -4
-5 -39 -83 -105 28 -25 56 -82
00000000: 7124 e9db b6be 2f0c 5611 cdeb 2f06 e50d
00000010: 3442 1c2c 3232 07f8 43f2 2950 4cf4 2b52
00000020: 0f51 ef4f c436 3ad3 40cf 73d1 20a4 1240
00000030: 352a 4ff7 d8ce 3913 0551 5a30 34f8 cd07
00000040: c9f9 18f1 17f9 f34c dc4a 42d4 f404 e733
00000050: 4806 01d9 3b2d 6d24 4fa0 0b26 1a0a f7e1
00000060: c9aa cb54 f1af be1c afd1 0903 c9ef 27d9
00000070: 1405 00c5 dd35 ee4a 6705 f947 e00a f217
00000080: 01cf eeae 12ff db05 c3c5 1df0 b6cb e1dc
00000090: d9c7 d319 22ca 372b eae0 6de0 350c 4a35
000000a0: 7f07 4056 3b42 5461 c6e9 5bd0 daa7 cd24
000000b0: 27fd 26cf 0a00 a8e7 c8f8 cfd6 e8a2 feeb
000000c0: 1040 13d9 be23 3f20 d9bc 8819 cbe6 cb19
000000d0: e827 3d0a 6f0f 2eca 4240 06b4 2539 5867
000000e0: 27e6 dcbd 03ac 596b 4608 402a 7516 1ab6
000000f0: 0a81 9753 4d0a f1fc fbd9 ad97 1ce7 38ae

arith.constant19 f4 [1, 14, 1, 64]
0.0 0.0 0.0 0.0 0.0 0.0 0.0 0.0
0.0 0.0 0.0 0.0 0.0 0.0 0.0 0.0
0.0 0.0 0.0 0.0 0.0 0.0 0.0 0.0
0.0 0.0 0.0 0.0 0.0 0.0 0.0 0.0
0.0 0.0 0.0 0.0 0.0 0.0 0.0 0.0
0.0 0.0 0.0 0.0 0.0 0.0 0.0 0.0
0.0 0.0 0.0 0.0 0.0 0.0 0.0 0.0
0.0 0.0 0.0 0.0 0.0 0.0 0.0 0.0
0.0 0.0 0.0 0.0 0.0 0.0 0.0 0.0
0.0 0.0 0.0 0.0 0.0 0.0 0.0 0.0
0.0 0.0 0.0 0.0 0.0 0.0 0.0 0.0
0.0 0.0 0.0 0.0 0.0 0.0 0.0 0.0
0.0 0.0 0.0 0.0 0.0 0.0 0.0 0.0
0.0 0.0 0.0 0.0 0.0 0.0 0.0 0.0
0.0 0.0 0.0 0.0 0.0 0.0 0.0 0.0
0.0 0.0 0.0 0.0 0.0 0.0 0.0 0.0
0.0 0.0 0.0 0.0 0.0 0.0 0.0 0.0
0.0 0.0 0.0 0.0 0.0 0.0 0.0 0.0
0.0 0.0 0.0 0.0 0.0 0.0 0.0 0.0
0.0 0.0 0.0 0.0 0.0 0.0 0.0 0.0
0.0 0.0 0.0 0.0 0.0 0.0 0.0 0.0
0.0 0.0 0.0 0.0 0.0 0.0 0.0 0.0
0.0 0.0 0.0 0.0 0.0 0.0 0.0 0.0
0.0 0.0 0.0 0.0 0.0 0.0 0.0 0.0
0.0 0.0 0.0 0.0 0.0 0.0 0.0 0.0
0.0 0.0 0.0 0.0 0.0 0.0 0.0 0.0
0.0 0.0 0.0 0.0 0.0 0.0 0.0 0.0
0.0 0.0 0.0 0.0 0.0 0.0 0.0 0.0
0.0 0.0 0.0 0.0 0.0 0.0 0.0 0.0
0.0 0.0 0.0 0.0 0.0 0.0 0.0 0.0
0.0 0.0 0.0 0.0 0.0 0.0 0.0 0.0
0.0 0.0 0.0 0.0 0.0 0.0 0.0 0.0
00000000: 0000 0000 0000 0000 0000 0000 0000 0000
00000010: 0000 0000 0000 0000 0000 0000 0000 0000
00000020: 0000 0000 0000 0000 0000 0000 0000 0000
00000030: 0000 0000 0000 0000 0000 0000 0000 0000
00000040: 0000 0000 0000 0000 0000 0000 0000 0000
00000050: 0000 0000 0000 0000 0000 0000 0000 0000
00000060: 0000 0000 0000 0000 0000 0000 0000 0000
00000070: 0000 0000 0000 0000 0000 0000 0000 0000
00000080: 0000 0000 0000 0000 0000 0000 0000 0000
00000090: 0000 0000 0000 0000 0000 0000 0000 0000
000000a0: 0000 0000 0000 0000 0000 0000 0000 0000
000000b0: 0000 0000 0000 0000 0000 0000 0000 0000
000000c0: 0000 0000 0000 0000 0000 0000 0000 0000
000000d0: 0000 0000 0000 0000 0000 0000 0000 0000
000000e0: 0000 0000 0000 0000 0000 0000 0000 0000
000000f0: 0000 0000 0000 0000 0000 0000 0000 0000
00000100: 0000 0000 0000 0000 0000 0000 0000 0000
00000110: 0000 0000 0000 0000 0000 0000 0000 0000
00000120: 0000 0000 0000 0000 0000 0000 0000 0000
00000130: 0000 0000 0000 0000 0000 0000 0000 0000
00000140: 0000 0000 0000 0000 0000 0000 0000 0000
00000150: 0000 0000 0000 0000 0000 0000 0000 0000
00000160: 0000 0000 0000 0000 0000 0000 0000 0000
00000170: 0000 0000 0000 0000 0000 0000 0000 0000
00000180: 0000 0000 0000 0000 0000 0000 0000 0000
00000190: 0000 0000 0000 0000 0000 0000 0000 0000
000001a0: 0000 0000 0000 0000 0000 0000 0000 0000
000001b0: 0000 0000 0000 0000 0000 0000 0000 0000
000001c0: 0000 0000 0000 0000 0000 0000 0000 0000
000001d0: 0000 0000 0000 0000 0000 0000 0000 0000
000001e0: 0000 0000 0000 0000 0000 0000 0000 0000
000001f0: 0000 0000 0000 0000 0000 0000 0000 0000
00000200: 0000 0000 0000 0000 0000 0000 0000 0000
00000210: 0000 0000 0000 0000 0000 0000 0000 0000
00000220: 0000 0000 0000 0000 0000 0000 0000 0000
00000230: 0000 0000 0000 0000 0000 0000 0000 0000
00000240: 0000 0000 0000 0000 0000 0000 0000 0000
00000250: 0000 0000 0000 0000 0000 0000 0000 0000
00000260: 0000 0000 0000 0000 0000 0000 0000 0000
00000270: 0000 0000 0000 0000 0000 0000 0000 0000
00000280: 0000 0000 0000 0000 0000 0000 0000 0000
00000290: 0000 0000 0000 0000 0000 0000 0000 0000
000002a0: 0000 0000 0000 0000 0000 0000 0000 0000
000002b0: 0000 0000 0000 0000 0000 0000 0000 0000
000002c0: 0000 0000 0000 0000 0000 0000 0000 0000
000002d0: 0000 0000 0000 0000 0000 0000 0000 0000
000002e0: 0000 0000 0000 0000 0000 0000 0000 0000
000002f0: 0000 0000 0000 0000 0000 0000 0000 0000
00000300: 0000 0000 0000 0000 0000 0000 0000 0000
00000310: 0000 0000 0000 0000 0000 0000 0000 0000
00000320: 0000 0000 0000 0000 0000 0000 0000 0000
00000330: 0000 0000 0000 0000 0000 0000 0000 0000
00000340: 0000 0000 0000 0000 0000 0000 0000 0000
00000350: 0000 0000 0000 0000 0000 0000 0000 0000
00000360: 0000 0000 0000 0000 0000 0000 0000 0000
00000370: 0000 0000 0000 0000 0000 0000 0000 0000
00000380: 0000 0000 0000 0000 0000 0000 0000 0000
00000390: 0000 0000 0000 0000 0000 0000 0000 0000
000003a0: 0000 0000 0000 0000 0000 0000 0000 0000
000003b0: 0000 0000 0000 0000 0000 0000 0000 0000
000003c0: 0000 0000 0000 0000 0000 0000 0000 0000
000003d0: 0000 0000 0000 0000 0000 0000 0000 0000
000003e0: 0000 0000 0000 0000 0000 0000 0000 0000
000003f0: 0000 0000 0000 0000 0000 0000 0000 0000

arith.constant20 f4 [1, 10, 1, 64]
0.0 0.0 0.0 0.0 0.0 0.0 0.0 0.0
0.0 0.0 0.0 0.0 0.0 0.0 0.0 0.0
0.0 0.0 0.0 0.0 0.0 0.0 0.0 0.0
0.0 0.0 0.0 0.0 0.0 0.0 0.0 0.0
0.0 0.0 0.0 0.0 0.0 0.0 0.0 0.0
0.0 0.0 0.0 0.0 0.0 0.0 0.0 0.0
0.0 0.0 0.0 0.0 0.0 0.0 0.0 0.0
0.0 0.0 0.0 0.0 0.0 0.0 0.0 0.0
0.0 0.0 0.0 0.0 0.0 0.0 0.0 0.0
0.0 0.0 0.0 0.0 0.0 0.0 0.0 0.0
0.0 0.0 0.0 0.0 0.0 0.0 0.0 0.0
0.0 0.0 0.0 0.0 0.0 0.0 0.0 0.0
0.0 0.0 0.0 0.0 0.0 0.0 0.0 0.0
0.0 0.0 0.0 0.0 0.0 0.0 0.0 0.0
0.0 0.0 0.0 0.0 0.0 0.0 0.0 0.0
0.0 0.0 0.0 0.0 0.0 0.0 0.0 0.0
0.0 0.0 0.0 0.0 0.0 0.0 0.0 0.0
0.0 0.0 0.0 0.0 0.0 0.0 0.0 0.0
0.0 0.0 0.0 0.0 0.0 0.0 0.0 0.0
0.0 0.0 0.0 0.0 0.0 0.0 0.0 0.0
0.0 0.0 0.0 0.0 0.0 0.0 0.0 0.0
0.0 0.0 0.0 0.0 0.0 0.0 0.0 0.0
0.0 0.0 0.0 0.0 0.0 0.0 0.0 0.0
0.0 0.0 0.0 0.0 0.0 0.0 0.0 0.0
0.0 0.0 0.0 0.0 0.0 0.0 0.0 0.0
0.0 0.0 0.0 0.0 0.0 0.0 0.0 0.0
0.0 0.0 0.0 0.0 0.0 0.0 0.0 0.0
0.0 0.0 0.0 0.0 0.0 0.0 0.0 0.0
0.0 0.0 0.0 0.0 0.0 0.0 0.0 0.0
0.0 0.0 0.0 0.0 0.0 0.0 0.0 0.0
0.0 0.0 0.0 0.0 0.0 0.0 0.0 0.0
0.0 0.0 0.0 0.0 0.0 0.0 0.0 0.0
00000000: 0000 0000 0000 0000 0000 0000 0000 0000
00000010: 0000 0000 0000 0000 0000 0000 0000 0000
00000020: 0000 0000 0000 0000 0000 0000 0000 0000
00000030: 0000 0000 0000 0000 0000 0000 0000 0000
00000040: 0000 0000 0000 0000 0000 0000 0000 0000
00000050: 0000 0000 0000 0000 0000 0000 0000 0000
00000060: 0000 0000 0000 0000 0000 0000 0000 0000
00000070: 0000 0000 0000 0000 0000 0000 0000 0000
00000080: 0000 0000 0000 0000 0000 0000 0000 0000
00000090: 0000 0000 0000 0000 0000 0000 0000 0000
000000a0: 0000 0000 0000 0000 0000 0000 0000 0000
000000b0: 0000 0000 0000 0000 0000 0000 0000 0000
000000c0: 0000 0000 0000 0000 0000 0000 0000 0000
000000d0: 0000 0000 0000 0000 0000 0000 0000 0000
000000e0: 0000 0000 0000 0000 0000 0000 0000 0000
000000f0: 0000 0000 0000 0000 0000 0000 0000 0000
00000100: 0000 0000 0000 0000 0000 0000 0000 0000
00000110: 0000 0000 0000 0000 0000 0000 0000 0000
00000120: 0000 0000 0000 0000 0000 0000 0000 0000
00000130: 0000 0000 0000 0000 0000 0000 0000 0000
00000140: 0000 0000 0000 0000 0000 0000 0000 0000
00000150: 0000 0000 0000 0000 0000 0000 0000 0000
00000160: 0000 0000 0000 0000 0000 0000 0000 0000
00000170: 0000 0000 0000 0000 0000 0000 0000 0000
00000180: 0000 0000 0000 0000 0000 0000 0000 0000
00000190: 0000 0000 0000 0000 0000 0000 0000 0000
000001a0: 0000 0000 0000 0000 0000 0000 0000 0000
000001b0: 0000 0000 0000 0000 0000 0000 0000 0000
000001c0: 0000 0000 0000 0000 0000 0000 0000 0000
000001d0: 0000 0000 0000 0000 0000 0000 0000 0000
000001e0: 0000 0000 0000 0000 0000 0000 0000 0000
000001f0: 0000 0000 0000 0000 0000 0000 0000 0000
00000200: 0000 0000 0000 0000 0000 0000 0000 0000
00000210: 0000 0000 0000 0000 0000 0000 0000 0000
00000220: 0000 0000 0000 0000 0000 0000 0000 0000
00000230: 0000 0000 0000 0000 0000 0000 0000 0000
00000240: 0000 0000 0000 0000 0000 0000 0000 0000
00000250: 0000 0000 0000 0000 0000 0000 0000 0000
00000260: 0000 0000 0000 0000 0000 0000 0000 0000
00000270: 0000 0000 0000 0000 0000 0000 0000 0000
00000280: 0000 0000 0000 0000 0000 0000 0000 0000
00000290: 0000 0000 0000 0000 0000 0000 0000 0000
000002a0: 0000 0000 0000 0000 0000 0000 0000 0000
000002b0: 0000 0000 0000 0000 0000 0000 0000 0000
000002c0: 0000 0000 0000 0000 0000 0000 0000 0000
000002d0: 0000 0000 0000 0000 0000 0000 0000 0000
000002e0: 0000 0000 0000 0000 0000 0000 0000 0000
000002f0: 0000 0000 0000 0000 0000 0000 0000 0000
00000300: 0000 0000 0000 0000 0000 0000 0000 0000
00000310: 0000 0000 0000 0000 0000 0000 0000 0000
00000320: 0000 0000 0000 0000 0000 0000 0000 0000
00000330: 0000 0000 0000 0000 0000 0000 0000 0000
00000340: 0000 0000 0000 0000 0000 0000 0000 0000
00000350: 0000 0000 0000 0000 0000 0000 0000 0000
00000360: 0000 0000 0000 0000 0000 0000 0000 0000
00000370: 0000 0000 0000 0000 0000 0000 0000 0000
00000380: 0000 0000 0000 0000 0000 0000 0000 0000
00000390: 0000 0000 0000 0000 0000 0000 0000 0000
000003a0: 0000 0000 0000 0000 0000 0000 0000 0000
000003b0: 0000 0000 0000 0000 0000 0000 0000 0000
000003c0: 0000 0000 0000 0000 0000 0000 0000 0000
000003d0: 0000 0000 0000 0000 0000 0000 0000 0000
000003e0: 0000 0000 0000 0000 0000 0000 0000 0000
000003f0: 0000 0000 0000 0000 0000 0000 0000 0000

arith.constant21 f4 [1, 4, 1, 32]
0.0 0.0 0.0 0.0 0.0 0.0 0.0 0.0
0.0 0.0 0.0 0.0 0.0 0.0 0.0 0.0
0.0 0.0 0.0 0.0 0.0 0.0 0.0 0.0
0.0 0.0 0.0 0.0 0.0 0.0 0.0 0.0
0.0 0.0 0.0 0.0 0.0 0.0 0.0 0.0
0.0 0.0 0.0 0.0 0.0 0.0 0.0 0.0
0.0 0.0 0.0 0.0 0.0 0.0 0.0 0.0
0.0 0.0 0.0 0.0 0.0 0.0 0.0 0.0
0.0 0.0 0.0 0.0 0.0 0.0 0.0 0.0
0.0 0.0 0.0 0.0 0.0 0.0 0.0 0.0
0.0 0.0 0.0 0.0 0.0 0.0 0.0 0.0
0.0 0.0 0.0 0.0 0.0 0.0 0.0 0.0
0.0 0.0 0.0 0.0 0.0 0.0 0.0 0.0
0.0 0.0 0.0 0.0 0.0 0.0 0.0 0.0
0.0 0.0 0.0 0.0 0.0 0.0 0.0 0.0
0.0 0.0 0.0 0.0 0.0 0.0 0.0 0.0
00000000: 0000 0000 0000 0000 0000 0000 0000 0000
00000010: 0000 0000 0000 0000 0000 0000 0000 0000
00000020: 0000 0000 0000 0000 0000 0000 0000 0000
00000030: 0000 0000 0000 0000 0000 0000 0000 0000
00000040: 0000 0000 0000 0000 0000 0000 0000 0000
00000050: 0000 0000 0000 0000 0000 0000 0000 0000
00000060: 0000 0000 0000 0000 0000 0000 0000 0000
00000070: 0000 0000 0000 0000 0000 0000 0000 0000
00000080: 0000 0000 0000 0000 0000 0000 0000 0000
00000090: 0000 0000 0000 0000 0000 0000 0000 0000
000000a0: 0000 0000 0000 0000 0000 0000 0000 0000
000000b0: 0000 0000 0000 0000 0000 0000 0000 0000
000000c0: 0000 0000 0000 0000 0000 0000 0000 0000
000000d0: 0000 0000 0000 0000 0000 0000 0000 0000
000000e0: 0000 0000 0000 0000 0000 0000 0000 0000
000000f0: 0000 0000 0000 0000 0000 0000 0000 0000
00000100: 0000 0000 0000 0000 0000 0000 0000 0000
00000110: 0000 0000 0000 0000 0000 0000 0000 0000
00000120: 0000 0000 0000 0000 0000 0000 0000 0000
00000130: 0000 0000 0000 0000 0000 0000 0000 0000
00000140: 0000 0000 0000 0000 0000 0000 0000 0000
00000150: 0000 0000 0000 0000 0000 0000 0000 0000
00000160: 0000 0000 0000 0000 0000 0000 0000 0000
00000170: 0000 0000 0000 0000 0000 0000 0000 0000
00000180: 0000 0000 0000 0000 0000 0000 0000 0000
00000190: 0000 0000 0000 0000 0000 0000 0000 0000
000001a0: 0000 0000 0000 0000 0000 0000 0000 0000
000001b0: 0000 0000 0000 0000 0000 0000 0000 0000
000001c0: 0000 0000 0000 0000 0000 0000 0000 0000
000001d0: 0000 0000 0000 0000 0000 0000 0000 0000
000001e0: 0000 0000 0000 0000 0000 0000 0000 0000
000001f0: 0000 0000 0000 0000 0000 0000 0000 0000

arith.constant22 f4 [1, 2, 1, 40]
0.0 0.0 0.0 0.0 0.0 0.0 0.0 0.0
0.0 0.0 0.0 0.0 0.0 0.0 0.0 0.0
0.0 0.0 0.0 0.0 0.0 0.0 0.0 0.0
0.0 0.0 0.0 0.0 0.0 0.0 0.0 0.0
0.0 0.0 0.0 0.0 0.0 0.0 0.0 0.0
0.0 0.0 0.0 0.0 0.0 0.0 0.0 0.0
0.0 0.0 0.0 0.0 0.0 0.0 0.0 0.0
0.0 0.0 0.0 0.0 0.0 0.0 0.0 0.0
0.0 0.0 0.0 0.0 0.0 0.0 0.0 0.0
0.0 0.0 0.0 0.0 0.0 0.0 0.0 0.0
00000000: 0000 0000 0000 0000 0000 0000 0000 0000
00000010: 0000 0000 0000 0000 0000 0000 0000 0000
00000020: 0000 0000 0000 0000 0000 0000 0000 0000
00000030: 0000 0000 0000 0000 0000 0000 0000 0000
00000040: 0000 0000 0000 0000 0000 0000 0000 0000
00000050: 0000 0000 0000 0000 0000 0000 0000 0000
00000060: 0000 0000 0000 0000 0000 0000 0000 0000
00000070: 0000 0000 0000 0000 0000 0000 0000 0000
00000080: 0000 0000 0000 0000 0000 0000 0000 0000
00000090: 0000 0000 0000 0000 0000 0000 0000 0000
000000a0: 0000 0000 0000 0000 0000 0000 0000 0000
000000b0: 0000 0000 0000 0000 0000 0000 0000 0000
000000c0: 0000 0000 0000 0000 0000 0000 0000 0000
000000d0: 0000 0000 0000 0000 0000 0000 0000 0000
000000e0: 0000 0000 0000 0000 0000 0000 0000 0000
000000f0: 0000 0000 0000 0000 0000 0000 0000 0000
00000100: 0000 0000 0000 0000 0000 0000 0000 0000
00000110: 0000 0000 0000 0000 0000 0000 0000 0000
00000120: 0000 0000 0000 0000 0000 0000 0000 0000
00000130: 0000 0000 0000 0000 0000 0000 0000 0000

arith.constant23 f4 [1, 16, 1, 64]
0.0 0.0 0.0 0.0 0.0 0.0 0.0 0.0
0.0 0.0 0.0 0.0 0.0 0.0 0.0 0.0
0.0 0.0 0.0 0.0 0.0 0.0 0.0 0.0
0.0 0.0 0.0 0.0 0.0 0.0 0.0 0.0
0.0 0.0 0.0 0.0 0.0 0.0 0.0 0.0
0.0 0.0 0.0 0.0 0.0 0.0 0.0 0.0
0.0 0.0 0.0 0.0 0.0 0.0 0.0 0.0
0.0 0.0 0.0 0.0 0.0 0.0 0.0 0.0
0.0 0.0 0.0 0.0 0.0 0.0 0.0 0.0
0.0 0.0 0.0 0.0 0.0 0.0 0.0 0.0
0.0 0.0 0.0 0.0 0.0 0.0 0.0 0.0
0.0 0.0 0.0 0.0 0.0 0.0 0.0 0.0
0.0 0.0 0.0 0.0 0.0 0.0 0.0 0.0
0.0 0.0 0.0 0.0 0.0 0.0 0.0 0.0
0.0 0.0 0.0 0.0 0.0 0.0 0.0 0.0
0.0 0.0 0.0 0.0 0.0 0.0 0.0 0.0
0.0 0.0 0.0 0.0 0.0 0.0 0.0 0.0
0.0 0.0 0.0 0.0 0.0 0.0 0.0 0.0
0.0 0.0 0.0 0.0 0.0 0.0 0.0 0.0
0.0 0.0 0.0 0.0 0.0 0.0 0.0 0.0
0.0 0.0 0.0 0.0 0.0 0.0 0.0 0.0
0.0 0.0 0.0 0.0 0.0 0.0 0.0 0.0
0.0 0.0 0.0 0.0 0.0 0.0 0.0 0.0
0.0 0.0 0.0 0.0 0.0 0.0 0.0 0.0
0.0 0.0 0.0 0.0 0.0 0.0 0.0 0.0
0.0 0.0 0.0 0.0 0.0 0.0 0.0 0.0
0.0 0.0 0.0 0.0 0.0 0.0 0.0 0.0
0.0 0.0 0.0 0.0 0.0 0.0 0.0 0.0
0.0 0.0 0.0 0.0 0.0 0.0 0.0 0.0
0.0 0.0 0.0 0.0 0.0 0.0 0.0 0.0
0.0 0.0 0.0 0.0 0.0 0.0 0.0 0.0
0.0 0.0 0.0 0.0 0.0 0.0 0.0 0.0
00000000: 0000 0000 0000 0000 0000 0000 0000 0000
00000010: 0000 0000 0000 0000 0000 0000 0000 0000
00000020: 0000 0000 0000 0000 0000 0000 0000 0000
00000030: 0000 0000 0000 0000 0000 0000 0000 0000
00000040: 0000 0000 0000 0000 0000 0000 0000 0000
00000050: 0000 0000 0000 0000 0000 0000 0000 0000
00000060: 0000 0000 0000 0000 0000 0000 0000 0000
00000070: 0000 0000 0000 0000 0000 0000 0000 0000
00000080: 0000 0000 0000 0000 0000 0000 0000 0000
00000090: 0000 0000 0000 0000 0000 0000 0000 0000
000000a0: 0000 0000 0000 0000 0000 0000 0000 0000
000000b0: 0000 0000 0000 0000 0000 0000 0000 0000
000000c0: 0000 0000 0000 0000 0000 0000 0000 0000
000000d0: 0000 0000 0000 0000 0000 0000 0000 0000
000000e0: 0000 0000 0000 0000 0000 0000 0000 0000
000000f0: 0000 0000 0000 0000 0000 0000 0000 0000
00000100: 0000 0000 0000 0000 0000 0000 0000 0000
00000110: 0000 0000 0000 0000 0000 0000 0000 0000
00000120: 0000 0000 0000 0000 0000 0000 0000 0000
00000130: 0000 0000 0000 0000 0000 0000 0000 0000
00000140: 0000 0000 0000 0000 0000 0000 0000 0000
00000150: 0000 0000 0000 0000 0000 0000 0000 0000
00000160: 0000 0000 0000 0000 0000 0000 0000 0000
00000170: 0000 0000 0000 0000 0000 0000 0000 0000
00000180: 0000 0000 0000 0000 0000 0000 0000 0000
00000190: 0000 0000 0000 0000 0000 0000 0000 0000
000001a0: 0000 0000 0000 0000 0000 0000 0000 0000
000001b0: 0000 0000 0000 0000 0000 0000 0000 0000
000001c0: 0000 0000 0000 0000 0000 0000 0000 0000
000001d0: 0000 0000 0000 0000 0000 0000 0000 0000
000001e0: 0000 0000 0000 0000 0000 0000 0000 0000
000001f0: 0000 0000 0000 0000 0000 0000 0000 0000
00000200: 0000 0000 0000 0000 0000 0000 0000 0000
00000210: 0000 0000 0000 0000 0000 0000 0000 0000
00000220: 0000 0000 0000 0000 0000 0000 0000 0000
00000230: 0000 0000 0000 0000 0000 0000 0000 0000
00000240: 0000 0000 0000 0000 0000 0000 0000 0000
00000250: 0000 0000 0000 0000 0000 0000 0000 0000
00000260: 0000 0000 0000 0000 0000 0000 0000 0000
00000270: 0000 0000 0000 0000 0000 0000 0000 0000
00000280: 0000 0000 0000 0000 0000 0000 0000 0000
00000290: 0000 0000 0000 0000 0000 0000 0000 0000
000002a0: 0000 0000 0000 0000 0000 0000 0000 0000
000002b0: 0000 0000 0000 0000 0000 0000 0000 0000
000002c0: 0000 0000 0000 0000 0000 0000 0000 0000
000002d0: 0000 0000 0000 0000 0000 0000 0000 0000
000002e0: 0000 0000 0000 0000 0000 0000 0000 0000
000002f0: 0000 0000 0000 0000 0000 0000 0000 0000
00000300: 0000 0000 0000 0000 0000 0000 0000 0000
00000310: 0000 0000 0000 0000 0000 0000 0000 0000
00000320: 0000 0000 0000 0000 0000 0000 0000 0000
00000330: 0000 0000 0000 0000 0000 0000 0000 0000
00000340: 0000 0000 0000 0000 0000 0000 0000 0000
00000350: 0000 0000 0000 0000 0000 0000 0000 0000
00000360: 0000 0000 0000 0000 0000 0000 0000 0000
00000370: 0000 0000 0000 0000 0000 0000 0000 0000
00000380: 0000 0000 0000 0000 0000 0000 0000 0000
00000390: 0000 0000 0000 0000 0000 0000 0000 0000
000003a0: 0000 0000 0000 0000 0000 0000 0000 0000
000003b0: 0000 0000 0000 0000 0000 0000 0000 0000
000003c0: 0000 0000 0000 0000 0000 0000 0000 0000
000003d0: 0000 0000 0000 0000 0000 0000 0000 0000
000003e0: 0000 0000 0000 0000 0000 0000 0000 0000
000003f0: 0000 0000 0000 0000 0000 0000 0000 0000

arith.constant24 f4 [1, 22, 1, 64]
0.0 0.0 0.0 0.0 0.0 0.0 0.0 0.0
0.0 0.0 0.0 0.0 0.0 0.0 0.0 0.0
0.0 0.0 0.0 0.0 0.0 0.0 0.0 0.0
0.0 0.0 0.0 0.0 0.0 0.0 0.0 0.0
0.0 0.0 0.0 0.0 0.0 0.0 0.0 0.0
0.0 0.0 0.0 0.0 0.0 0.0 0.0 0.0
0.0 0.0 0.0 0.0 0.0 0.0 0.0 0.0
0.0 0.0 0.0 0.0 0.0 0.0 0.0 0.0
0.0 0.0 0.0 0.0 0.0 0.0 0.0 0.0
0.0 0.0 0.0 0.0 0.0 0.0 0.0 0.0
0.0 0.0 0.0 0.0 0.0 0.0 0.0 0.0
0.0 0.0 0.0 0.0 0.0 0.0 0.0 0.0
0.0 0.0 0.0 0.0 0.0 0.0 0.0 0.0
0.0 0.0 0.0 0.0 0.0 0.0 0.0 0.0
0.0 0.0 0.0 0.0 0.0 0.0 0.0 0.0
0.0 0.0 0.0 0.0 0.0 0.0 0.0 0.0
0.0 0.0 0.0 0.0 0.0 0.0 0.0 0.0
0.0 0.0 0.0 0.0 0.0 0.0 0.0 0.0
0.0 0.0 0.0 0.0 0.0 0.0 0.0 0.0
0.0 0.0 0.0 0.0 0.0 0.0 0.0 0.0
0.0 0.0 0.0 0.0 0.0 0.0 0.0 0.0
0.0 0.0 0.0 0.0 0.0 0.0 0.0 0.0
0.0 0.0 0.0 0.0 0.0 0.0 0.0 0.0
0.0 0.0 0.0 0.0 0.0 0.0 0.0 0.0
0.0 0.0 0.0 0.0 0.0 0.0 0.0 0.0
0.0 0.0 0.0 0.0 0.0 0.0 0.0 0.0
0.0 0.0 0.0 0.0 0.0 0.0 0.0 0.0
0.0 0.0 0.0 0.0 0.0 0.0 0.0 0.0
0.0 0.0 0.0 0.0 0.0 0.0 0.0 0.0
0.0 0.0 0.0 0.0 0.0 0.0 0.0 0.0
0.0 0.0 0.0 0.0 0.0 0.0 0.0 0.0
0.0 0.0 0.0 0.0 0.0 0.0 0.0 0.0
00000000: 0000 0000 0000 0000 0000 0000 0000 0000
00000010: 0000 0000 0000 0000 0000 0000 0000 0000
00000020: 0000 0000 0000 0000 0000 0000 0000 0000
00000030: 0000 0000 0000 0000 0000 0000 0000 0000
00000040: 0000 0000 0000 0000 0000 0000 0000 0000
00000050: 0000 0000 0000 0000 0000 0000 0000 0000
00000060: 0000 0000 0000 0000 0000 0000 0000 0000
00000070: 0000 0000 0000 0000 0000 0000 0000 0000
00000080: 0000 0000 0000 0000 0000 0000 0000 0000
00000090: 0000 0000 0000 0000 0000 0000 0000 0000
000000a0: 0000 0000 0000 0000 0000 0000 0000 0000
000000b0: 0000 0000 0000 0000 0000 0000 0000 0000
000000c0: 0000 0000 0000 0000 0000 0000 0000 0000
000000d0: 0000 0000 0000 0000 0000 0000 0000 0000
000000e0: 0000 0000 0000 0000 0000 0000 0000 0000
000000f0: 0000 0000 0000 0000 0000 0000 0000 0000
00000100: 0000 0000 0000 0000 0000 0000 0000 0000
00000110: 0000 0000 0000 0000 0000 0000 0000 0000
00000120: 0000 0000 0000 0000 0000 0000 0000 0000
00000130: 0000 0000 0000 0000 0000 0000 0000 0000
00000140: 0000 0000 0000 0000 0000 0000 0000 0000
00000150: 0000 0000 0000 0000 0000 0000 0000 0000
00000160: 0000 0000 0000 0000 0000 0000 0000 0000
00000170: 0000 0000 0000 0000 0000 0000 0000 0000
00000180: 0000 0000 0000 0000 0000 0000 0000 0000
00000190: 0000 0000 0000 0000 0000 0000 0000 0000
000001a0: 0000 0000 0000 0000 0000 0000 0000 0000
000001b0: 0000 0000 0000 0000 0000 0000 0000 0000
000001c0: 0000 0000 0000 0000 0000 0000 0000 0000
000001d0: 0000 0000 0000 0000 0000 0000 0000 0000
000001e0: 0000 0000 0000 0000 0000 0000 0000 0000
000001f0: 0000 0000 0000 0000 0000 0000 0000 0000
00000200: 0000 0000 0000 0000 0000 0000 0000 0000
00000210: 0000 0000 0000 0000 0000 0000 0000 0000
00000220: 0000 0000 0000 0000 0000 0000 0000 0000
00000230: 0000 0000 0000 0000 0000 0000 0000 0000
00000240: 0000 0000 0000 0000 0000 0000 0000 0000
00000250: 0000 0000 0000 0000 0000 0000 0000 0000
00000260: 0000 0000 0000 0000 0000 0000 0000 0000
00000270: 0000 0000 0000 0000 0000 0000 0000 0000
00000280: 0000 0000 0000 0000 0000 0000 0000 0000
00000290: 0000 0000 0000 0000 0000 0000 0000 0000
000002a0: 0000 0000 0000 0000 0000 0000 0000 0000
000002b0: 0000 0000 0000 0000 0000 0000 0000 0000
000002c0: 0000 0000 0000 0000 0000 0000 0000 0000
000002d0: 0000 0000 0000 0000 0000 0000 0000 0000
000002e0: 0000 0000 0000 0000 0000 0000 0000 0000
000002f0: 0000 0000 0000 0000 0000 0000 0000 0000
00000300: 0000 0000 0000 0000 0000 0000 0000 0000
00000310: 0000 0000 0000 0000 0000 0000 0000 0000
00000320: 0000 0000 0000 0000 0000 0000 0000 0000
00000330: 0000 0000 0000 0000 0000 0000 0000 0000
00000340: 0000 0000 0000 0000 0000 0000 0000 0000
00000350: 0000 0000 0000 0000 0000 0000 0000 0000
00000360: 0000 0000 0000 0000 0000 0000 0000 0000
00000370: 0000 0000 0000 0000 0000 0000 0000 0000
00000380: 0000 0000 0000 0000 0000 0000 0000 0000
00000390: 0000 0000 0000 0000 0000 0000 0000 0000
000003a0: 0000 0000 0000 0000 0000 0000 0000 0000
000003b0: 0000 0000 0000 0000 0000 0000 0000 0000
000003c0: 0000 0000 0000 0000 0000 0000 0000 0000
000003d0: 0000 0000 0000 0000 0000 0000 0000 0000
000003e0: 0000 0000 0000 0000 0000 0000 0000 0000
000003f0: 0000 0000 0000 0000 0000 0000 0000 0000
