models/v2/lancelot.tflite (tflite, 60944 bytes, 18 tensors)

tfl.pseudo_qconst1 i1 [1, 1088] scale=0.0011801154 zero_point=0
00000000: 182d bfa9 0ec4 d2d9 b9d5 ec9b e4d6 e5b7
00000010: 9ce7 9ca8 d2e1 c6cb 250b aa0c bee8 e93b
00000020: 22f2 1015 3247 03c8 f510 1186 0afc fb09
00000030: 2013 fbfe da3a abf5 ac36 e4a6 f0ea 211e
00000040: b62c d5aa 11ba eafc dbce e9c4 f4dc 0792
00000050: ecd2 b600 9f30 f7e1 03ba b0cc b4ef e540
00000060: 1011 f4b5 db03 9fdf b59e dbdd c809 ad0f
00000070: e1da cdd0 27e9 da2f c040 2be0 32e7 1fee
00000080: af25 fae7 d9b1 ccd0 bc0f 2ac9 b8e4 128c
00000090: d2ac ffc1 01c3 e723 fe0c d514 fe00 f2e3
000000a0: 40b1 ba22 e916 cfd4 e497 0fa4 ac31 cdec
000000b0: cc08 f5ba 2729 ed38 d937 e09e 2000 04e6
000000c0: d9d2 c80e d4bf 20d8 af2d f3c2 b9c7 07c5
000000d0: 93cd a1df c0d2 dbfd f3d1 db0f b9ea aced
000000e0: ddba b4c0 4a11 dbc6 dcbe f9c1 e1c4 e5d9
000000f0: bbe5 30ac 1835 1020 eaeb e3e8 08ca f01d
0.02832277 0.053105194 -0.0767075 -0.102670036 0.016521616 -0.07080692 -0.054285306 -0.0460245
-0.083788194 -0.050744962 -0.023602307 -0.119191654 -0.03304323 -0.049564846 -0.031863116 -0.086148426
-0.11801154 -0.029502885 -0.11801154 -0.103850156 -0.054285306 -0.036583576 -0.068446696 -0.06254612
0.04366427 0.0129812695 -0.101489924 0.014161385 -0.07788762 -0.02832277 -0.027142653 0.06962681
0.040123925 -0.016521616 0.018881846 0.024782423 0.05900577 0.083788194 0.0035403462 -0.06608646
-0.0129812695 0.018881846 0.020061962 -0.14397408 0.011801153 -0.0047204616 -0.0059005767 0.010621038
0.037763692 0.022422193 -0.0059005767 -0.0023602308 -0.044844385 0.068446696 -0.10030981 -0.0129812695
-0.09912969 0.06372623 -0.03304323 -0.10621039 -0.018881846 -0.025962539 0.03894381 0.03540346
-0.08732854 0.051925078 -0.050744962 -0.101489924 0.020061962 -0.082608074 -0.025962539 -0.0047204616
-0.04366427 -0.05900577 -0.027142653 -0.07080692 -0.014161385 -0.042484153 0.008260808 -0.12981269
-0.023602307 -0.054285306 -0.08732854 0.0 -0.11447119 0.05664554 -0.010621038 -0.036583576
0.0035403462 -0.082608074 -0.09440923 -0.061366 -0.08968877 -0.020061962 -0.031863116 0.075527385
0.018881846 0.020061962 -0.014161385 -0.08850865 -0.04366427 0.0035403462 -0.11447119 -0.03894381
-0.08850865 -0.11565131 -0.04366427 -0.041304037 -0.06608646 0.010621038 -0.09794958 0.01770173
-0.036583576 -0.044844385 -0.060185883 -0.05664554 0.0460245 -0.027142653 -0.044844385 0.055465423
-0.075527385 0.075527385 0.050744962 -0.037763692 0.05900577 -0.029502885 0.036583576 -0.021242077
-0.09558935 0.04366427 -0.0070806923 -0.029502885 -0.0460245 -0.093229115 -0.061366 -0.05664554
-0.08024785 0.01770173 0.049564846 -0.064906344 -0.084968306 -0.03304323 0.021242077 -0.13689339
-0.054285306 -0.09912969 -0.0011801154 -0.07434727 0.0011801154 -0.07198704 -0.029502885 0.041304037
-0.0023602308 0.014161385 -0.050744962 0.023602307 -0.0023602308 0.0 -0.016521616 -0.034223348
0.075527385 -0.093229115 -0.082608074 0.040123925 -0.027142653 0.025962539 -0.057825655 -0.051925078
-0.03304323 -0.12391212 0.01770173 -0.10857061 -0.09912969 0.057825655 -0.060185883 -0.023602307
-0.061366 0.009440923 -0.0129812695 -0.082608074 0.0460245 0.04838473 -0.022422193 0.06608646
-0.0460245 0.064906344 -0.037763692 -0.11565131 0.037763692 0.0 0.0047204616 -0.030683
-0.0460245 -0.054285306 -0.06608646 0.016521616 -0.051925078 -0.0767075 0.037763692 -0.047204614
-0.09558935 0.053105194 -0.0153415 -0.07316715 -0.083788194 -0.067266576 0.008260808 -0.06962681
-0.12863258 -0.060185883 -0.112110965 -0.03894381 -0.075527385 -0.054285306 -0.04366427 -0.0035403462
-0.0153415 -0.055465423 -0.04366427 0.01770173 -0.083788194 -0.025962539 -0.09912969 -0.022422193
-0.041304037 -0.082608074 -0.08968877 -0.075527385 0.08732854 0.020061962 -0.04366427 -0.068446696
-0.042484153 -0.07788762 -0.008260808 -0.07434727 -0.036583576 -0.07080692 -0.031863116 -0.0460245
-0.08142796 -0.031863116 0.05664554 -0.09912969 0.02832277 0.06254612 0.018881846 0.037763692
-0.025962539 -0.024782423 -0.034223348 -0.02832277 0.009440923 -0.06372623 -0.018881846 0.034223348

tfl.pseudo_qconst3 i1 [64, 1, 1, 64]
00000000: 0332 bdfd 4362 66d1 40d0 0fb1 eb09 7f3c
00000010: a6dc be5d 4c39 e015 67d8 366a 9a3e f111
00000020: 635a 27b1 5d95 01c6 0fd0 c81e 1028 3d16
00000030: 1fa9 63c4 d6ed 3051 654a 623b 175f 0193
00000040: c78c 4527 1727 fac7 30a4 4e06 c94b 04c5
00000050: d4b0 cc73 ad5d cc58 4bf0 4f38 ad1d aec3
00000060: 6722 c45a 6a4c 3258 7fd7 8e5a 39ec 081b
00000070: d916 c741 a99d dd06 a292 2b9b 2cae 5bed
00000080: 69c4 c776 c91b b635 4056 0e94 9d15 c239
00000090: a9ba 0f0a 492c b6fd 497f ed21 6ad2 a612
000000a0: b118 76f7 12f8 2443 3fd1 65dc dd4c cd11
000000b0: d3d5 5240 31ac 56c3 743e 79bc ed61 bf07
000000c0: ff1d 6521 c463 609d 767b db53 5075 e625
000000d0: 1cb9 c954 0c15 fea0 944f e592 35ec fb12
000000e0: 4d05 55a9 e843 31ae 47df 3b5f b8c2 00b3
000000f0: 9e7f 9409 3aae e0e2 e3d2 a3b9 d03f 73bb
3 50 -67 -3 67 98 102 -47
64 -48 15 -79 -21 9 127 60
-90 -36 -66 93 76 57 -32 21
103 -40 54 106 -102 62 -15 17
99 90 39 -79 93 -107 1 -58
15 -48 -56 30 16 40 61 22
31 -87 99 -60 -42 -19 48 81
101 74 98 59 23 95 1 -109
-57 -116 69 39 23 39 -6 -57
48 -92 78 6 -55 75 4 -59
-44 -80 -52 115 -83 93 -52 88
75 -16 79 56 -83 29 -82 -61
103 34 -60 90 106 76 50 88
127 -41 -114 90 57 -20 8 27
-39 22 -57 65 -87 -99 -35 6
-94 -110 43 -101 44 -82 91 -19
105 -60 -57 118 -55 27 -74 53
64 86 14 -108 -99 21 -62 57
-87 -70 15 10 73 44 -74 -3
73 127 -19 33 106 -46 -90 18
-79 24 118 -9 18 -8 36 67
63 -47 101 -36 -35 76 -51 17
-45 -43 82 64 49 -84 86 -61
116 62 121 -68 -19 97 -65 7
-1 29 101 33 -60 99 96 -99
118 123 -37 83 80 117 -26 37
28 -71 -55 84 12 21 -2 -96
-108 79 -27 -110 53 -20 -5 18
77 5 85 -87 -24 67 49 -82
71 -33 59 95 -72 -62 0 -77
-98 127 -108 9 58 -82 -32 -30
-29 -46 -93 -71 -48 63 115 -69

tfl.pseudo_qconst5 i1 [1, 23, 1, 64]
00000000: b1d7 7ff2 d881 7f24 0f02 8138 65d9 9c55
00000010: 637e 81ea 37fc b1d4 a969 81fa 3ffa 7fc1
00000020: d8da eee6 ec81 6c3e 2b81 5046 7f62 a09b
00000030: 6b3f ebe7 5b25 b664 f6dd ee81 1aa8 8187
00000040: 0cca 3abe c3b4 2a5b 0e3a ed7f ef05 bc26
00000050: 2b09 a506 a90a dcc4 c56a dfd9 6077 5a1a
00000060: 25bf 1a0c d5eb 2114 c0cf 556f 015e 1801
00000070: ecfc 40ea 3a69 f760 16fa 032c 1e4a 8b81
00000080: ac12 50b0 6aa6 fadc 14ea b129 0cd7 baf1
00000090: fffb 8726 d42f 0d4c c97f 0600 0a7f 02d5
000000a0: 139e dae2 a4a3 19c9 cef5 28dc edd8 9d9b
000000b0: 2929 28cd 0774 c3e3 c009 c546 4603 ebe9
000000c0: 9ead 0091 e2ff 3718 efbf 294b e61a e018
000000d0: 122a a8c3 d1e1 092a ff4a d3d0 3e78 464d
000000e0: 1381 07db 38d3 8f81 aa29 4c6c 0f0f e4f9
000000f0: fc4b deed bf7f bc39 0a15 b616 3f14 0ff7
-79 -41 127 -14 -40 -127 127 36
15 2 -127 56 101 -39 -100 85
99 126 -127 -22 55 -4 -79 -44
-87 105 -127 -6 63 -6 127 -63
-40 -38 -18 -26 -20 -127 108 62
43 -127 80 70 127 98 -96 -101
107 63 -21 -25 91 37 -74 100
-10 -35 -18 -127 26 -88 -127 -121
12 -54 58 -66 -61 -76 42 91
14 58 -19 127 -17 5 -68 38
43 9 -91 6 -87 10 -36 -60
-59 106 -33 -39 96 119 90 26
37 -65 26 12 -43 -21 33 20
-64 -49 85 111 1 94 24 1
-20 -4 64 -22 58 105 -9 96
22 -6 3 44 30 74 -117 -127
-84 18 80 -80 106 -90 -6 -36
20 -22 -79 41 12 -41 -70 -15
-1 -5 -121 38 -44 47 13 76
-55 127 6 0 10 127 2 -43
19 -98 -38 -30 -92 -93 25 -55
-50 -11 40 -36 -19 -40 -99 -101
41 41 40 -51 7 116 -61 -29
-64 9 -59 70 70 3 -21 -23
-98 -83 0 -111 -30 -1 55 24
-17 -65 41 75 -26 26 -32 24
18 42 -88 -61 -47 -31 9 42
-1 74 -45 -48 62 120 70 77
19 -127 7 -37 56 -45 -113 -127
-86 41 76 108 15 15 -28 -7
-4 75 -34 -19 -65 127 -68 57
10 21 -74 22 63 20 15 -9

tfl.pseudo_qconst7 i1 [64, 1, 1, 64]
00000000: 0ef4 0ff5 b4ef c100 dc15 200c f9bd 0516
00000010: aaea 7fef 3bdd 3e40 ecdf 3a63 d73d 1df6
00000020: d2fa 262d 41ef 3afc 3ef2 a64c 03fc ed0e
00000030: 393d d448 cfea 16f4 c437 58f9 5b16 d8a0
00000040: c899 c42e a156 e506 f631 1cb1 64d9 1604
00000050: d603 7f3b 652e 03f8 611a 582b cdd1 2af4
00000060: c8c5 c950 ad2d f805 a8ce e04d 56f9 ffd7
00000070: 95b2 25f5 3df5 aab5 5206 fe36 cc34 08bc
00000080: c919 392b 37e4 cc4d e9dc 6c0d 5153 127f
00000090: 2081 55e2 d6cb 24e3 a401 8aa1 a3a6 54ac
000000a0: bacd 6ca6 3c52 1192 6047 3410 3df8 a439
000000b0: 1734 c317 0d0c 79eb 8fc7 628d f3d7 d9fd
000000c0: e355 20bf b6ba 8ec2 6e41 2c23 fbf3 f5f2
000000d0: 260c e7fc 821b b3c7 e213 3581 c61d 4150
000000e0: e051 00c3 435a 8b36 0798 f123 5d3e d756
000000f0: 6db3 6318 d1ee 223a a136 3e70 88c3 5bd6
14 -12 15 -11 -76 -17 -63 0
-36 21 32 12 -7 -67 5 22
-86 -22 127 -17 59 -35 62 64
-20 -33 58 99 -41 61 29 -10
-46 -6 38 45 65 -17 58 -4
62 -14 -90 76 3 -4 -19 14
57 61 -44 72 -49 -22 22 -12
-60 55 88 -7 91 22 -40 -96
-56 -103 -60 46 -95 86 -27 6
-10 49 28 -79 100 -39 22 4
-42 3 127 59 101 46 3 -8
97 26 88 43 -51 -47 42 -12
-56 -59 -55 80 -83 45 -8 5
-88 -50 -32 77 86 -7 -1 -41
-107 -78 37 -11 61 -11 -86 -75
82 6 -2 54 -52 52 8 -68
-55 25 57 43 55 -28 -52 77
-23 -36 108 13 81 83 18 127
32 -127 85 -30 -42 -53 36 -29
-92 1 -118 -95 -93 -90 84 -84
-70 -51 108 -90 60 82 17 -110
96 71 52 16 61 -8 -92 57
23 52 -61 23 13 12 121 -21
-113 -57 98 -115 -13 -41 -39 -3
-29 85 32 -65 -74 -70 -114 -62
110 65 44 35 -5 -13 -11 -14
38 12 -25 -4 -126 27 -77 -57
-30 19 53 -127 -58 29 65 80
-32 81 0 -61 67 90 -117 54
7 -104 -15 35 93 62 -41 86
109 -77 99 24 -47 -18 34 58
-95 54 62 112 -120 -61 91 -42

tfl.pseudo_qconst9 i1 [1, 15, 1, 32]
00000000: e8d8 12cb b724 16d8 ad7f 8751 1dc4 b52e
00000010: 8673 24ae c962 fa4b 1db7 e651 f9e1 347d
00000020: b8aa 2e3c 6204 1182 f530 8a2a 254b 8103
00000030: 984c 81ca d523 81bc 210c 7f11 e29d 7f7f
00000040: 4a2c dafc 5406 c79f 8930 818f 0f00 e5f3
00000050: 12ed 5609 4a05 f713 66c7 496d a55c d723
00000060: e800 21ba d4ee ae4f bd3a 02c2 81f6 b57a
00000070: 0ee0 1b15 2ef8 b6f9 5881 43a9 3797 f0a0
00000080: bc2d 2fca e45a a077 ee73 a43e 2422 5062
00000090: 2603 f70c 7f02 5526 5ebe fd7f e242 1ed0
000000a0: 41eb 41fd c9a8 488d 4d2d a8cf 2018 e9c9
000000b0: 0a3f de51 dd29 e8c2 fc55 c589 48e6 a99f
000000c0: 04f8 30bc 6bbf 6e7b 4bfa 16b7 c156 54e1
000000d0: e72e 2231 0538 20ba 2d47 e5f6 5f72 63d5
000000e0: d1cf 40b6 e182 7f8a b815 9c1d db2c c21b
000000f0: 65db 350a be5d 0801 aebb e482 7f19 db40
-24 -40 18 -53 -73 36 22 -40
-83 127 -121 81 29 -60 -75 46
-122 115 36 -82 -55 98 -6 75
29 -73 -26 81 -7 -31 52 125
-72 -86 46 60 98 4 17 -126
-11 48 -118 42 37 75 -127 3
-104 76 -127 -54 -43 35 -127 -68
33 12 127 17 -30 -99 127 127
74 44 -38 -4 84 6 -57 -97
-119 48 -127 -113 15 0 -27 -13
18 -19 86 9 74 5 -9 19
102 -57 73 109 -91 92 -41 35
-24 0 33 -70 -44 -18 -82 79
-67 58 2 -62 -127 -10 -75 122
14 -32 27 21 46 -8 -74 -7
88 -127 67 -87 55 -105 -16 -96
-68 45 47 -54 -28 90 -96 119
-18 115 -92 62 36 34 80 98
38 3 -9 12 127 2 85 38
94 -66 -3 127 -30 66 30 -48
65 -21 65 -3 -55 -88 72 -115
77 45 -88 -49 32 24 -23 -55
10 63 -34 81 -35 41 -24 -62
-4 85 -59 -119 72 -26 -87 -97
4 -8 48 -68 107 -65 110 123
75 -6 22 -73 -63 86 84 -31
-25 46 34 49 5 56 32 -70
45 71 -27 -10 95 114 99 -43
-47 -49 64 -74 -31 -126 127 -118
-72 21 -100 29 -37 44 -62 27
101 -37 53 10 -66 93 8 1
-82 -69 -28 -126 127 25 -37 64

tfl.pseudo_qconst11 i1 [1, 9, 1, 32]
00000000: bbeb 1861 0a81 ccc7 5029 cc83 d813 7f27
00000010: 7ca7 37d4 4fde 7faf b31b e361 de7e 4757
00000020: 4c1d 4d9b 7582 3b07 6f41 aea3 b38e 2853
00000030: 4622 ed44 f343 0566 e01e 2ffc a8ef 0e7f
00000040: dd7f 6b6a fbc6 3d26 6ce9 f2ab fbfa 1488
00000050: fc99 193f f4ce 0e47 0581 0e81 7fbe 9342
00000060: 9d59 50c8 7f17 3fe2 bd7f 2d16 8112 0b81
00000070: 6781 7ff9 0be2 d552 bc8b 5bad bace 2c0b
00000080: 3d55 7f37 1ed4 d202 81c7 c6fb 84b0 eb5d
00000090: 30bf 5d08 ca5f d267 815c 463d d47f e973
000000a0: 81e6 5001 c4ec a7c1 e764 29f8 1609 56c8
000000b0: 8116 4458 bb02 b2db a448 ca4d 98ba 5dea
000000c0: f83f dca7 44f7 fd35 bc0e b67f 914d 3ad3
000000d0: 1ce4 df17 467f 677f 0744 7f66 6db7 7dc3
000000e0: 9442 162d e206 7f7f ba32 c78c c67f ddaf
000000f0: fffe b07f 391b 94ce 016d 278f 56d7 c99f
-69 -21 24 97 10 -127 -52 -57
80 41 -52 -125 -40 19 127 39
124 -89 55 -44 79 -34 127 -81
-77 27 -29 97 -34 126 71 87
76 29 77 -101 117 -126 59 7
111 65 -82 -93 -77 -114 40 83
70 34 -19 68 -13 67 5 102
-32 30 47 -4 -88 -17 14 127
-35 127 107 106 -5 -58 61 38
108 -23 -14 -85 -5 -6 20 -120
-4 -103 25 63 -12 -50 14 71
5 -127 14 -127 127 -66 -109 66
-99 89 80 -56 127 23 63 -30
-67 127 45 22 -127 18 11 -127
103 -127 127 -7 11 -30 -43 82
-68 -117 91 -83 -70 -50 44 11
61 85 127 55 30 -44 -46 2
-127 -57 -58 -5 -124 -80 -21 93
48 -65 93 8 -54 95 -46 103
-127 92 70 61 -44 127 -23 115
-127 -26 80 1 -60 -20 -89 -63
-25 100 41 -8 22 9 86 -56
-127 22 68 88 -69 2 -78 -37
-92 72 -54 77 -104 -70 93 -22
-8 63 -36 -89 68 -9 -3 53
-68 14 -74 127 -111 77 58 -45
28 -28 -33 23 70 127 103 127
7 68 127 102 109 -73 125 -61
-108 66 22 45 -30 6 127 127
-70 50 -57 -116 -58 127 -35 -81
-1 -2 -80 127 57 27 -108 -50
1 109 39 -113 86 -41 -55 -97

tfl.pseudo_qconst13 i1 [64, 1, 1, 64]
00000000: f6ec b101 8189 3134 0edb f702 7360 ae78
00000010: 7f1c 3d34 e43c db4f 1fed 3ebd 99f3 0b4c
00000020: d303 ee4f 59f6 b1d9 c7ee b2aa 0f68 6277
00000030: 2837 aed8 1a6a b689 152d 44f3 0374 33de
00000040: 1a16 f716 5dea c0e2 b557 030e c7e1 2a3c
00000050: 7f04 e71e dcb1 f0dd d316 44d8 0d8e dc12
00000060: 21c8 c134 f2b9 fdcd 2b2a c9ee 1a16 1514
00000070: 410d e3c7 e2ea 8ed6 20a4 5920 f707 d441
00000080: 961a 88d2 b6b6 3f6c 8348 5d48 3a33 4e8c
00000090: 1b02 e425 e9ba 157b 21a2 bcb4 d2d4 3bb2
000000a0: de22 d518 2e5c f754 7f94 5672 21ff aa52
000000b0: 5f0f c55a 5b2a dca1 d64b 5fd0 4fbc 04bf
000000c0: 010a 2074 0ee6 2401 5834 6c1c 83e9 13fa
000000d0: d6bf 8f40 3a1a bfe4 d2c8 2100 4d81 3ca6
000000e0: 665d 34c2 ba27 263a ae07 c62d 1557 33f9
000000f0: 24c9 2743 23fa 2907 e0fb d4bc 9a06 25af
-10 -20 -79 1 -127 -119 49 52
14 -37 -9 2 115 96 -82 120
127 28 61 52 -28 60 -37 79
31 -19 62 -67 -103 -13 11 76
-45 3 -18 79 89 -10 -79 -39
-57 -18 -78 -86 15 104 98 119
40 55 -82 -40 26 106 -74 -119
21 45 68 -13 3 116 51 -34
26 22 -9 22 93 -22 -64 -30
-75 87 3 14 -57 -31 42 60
127 4 -25 30 -36 -79 -16 -35
-45 22 68 -40 13 -114 -36 18
33 -56 -63 52 -14 -71 -3 -51
43 42 -55 -18 26 22 21 20
65 13 -29 -57 -30 -22 -114 -42
32 -92 89 32 -9 7 -44 65
-106 26 -120 -46 -74 -74 63 108
-125 72 93 72 58 51 78 -116
27 2 -28 37 -23 -70 21 123
33 -94 -68 -76 -46 -44 59 -78
-34 34 -43 24 46 92 -9 84
127 -108 86 114 33 -1 -86 82
95 15 -59 90 91 42 -36 -95
-42 75 95 -48 79 -68 4 -65
1 10 32 116 14 -26 36 1
88 52 108 28 -125 -23 19 -6
-42 -65 -113 64 58 26 -65 -28
-46 -56 33 0 77 -127 60 -90
102 93 52 -62 -70 39 38 58
-82 7 -58 45 21 87 51 -7
36 -55 39 67 35 -6 41 7
-32 -5 -44 -68 -102 6 37 -81

tfl.pseudo_qconst15 i1 [1, 11, 1, 32]
00000000: 896e 0f2e 432b f9a2 8981 4de1 be6a 62f8
00000010: 3fdb df3d e0b8 4aa1 cc10 d928 1aaf 210a
00000020: e87f dd81 25ea 7ffd 1bd0 d7fc 2a51 11c7
00000030: f03a b7b7 7ff4 13a8 a4cf d81e b8d9 50ad
00000040: e9cb 0dec fdd1 3181 ea12 d2f6 43c8 fafc
00000050: 81e8 a23d cbcd f0bc be55 c542 0511 4db2
00000060: afd0 7ffb 0f12 056f 27fa de4e e8e5 fddc
00000070: 3d14 195f c97f 5b36 ad1e 86da d9df 49fd
00000080: 9dce cf75 11dc fdc2 7f45 2f50 8120 55cf
00000090: c781 8415 4db0 5054 7fe5 c0a8 cd34 c530
000000a0: 2af4 c25e b5f4 9d3f 47ef 2068 add0 f46c
000000b0: fbf8 8c58 e25a 7a42 004d 67f6 1d1c 81e5
000000c0: 154e 99f2 ffb7 b20f c02b bb44 fd45 b9f6
000000d0: bcff 2a02 fa1d 00ee 45fc e1ed 67ca 92df
000000e0: a94f 49e1 afe9 ac37 7315 bf7f 947f 0e1d
000000f0: 1896 27bd c6ae c981 dde3 81e1 3e09 16dc
-119 110 15 46 67 43 -7 -94
-119 -127 77 -31 -66 106 98 -8
63 -37 -33 61 -32 -72 74 -95
-52 16 -39 40 26 -81 33 10
-24 127 -35 -127 37 -22 127 -3
27 -48 -41 -4 42 81 17 -57
-16 58 -73 -73 127 -12 19 -88
-92 -49 -40 30 -72 -39 80 -83
-23 -53 13 -20 -3 -47 49 -127
-22 18 -46 -10 67 -56 -6 -4
-127 -24 -94 61 -53 -51 -16 -68
-66 85 -59 66 5 17 77 -78
-81 -48 127 -5 15 18 5 111
39 -6 -34 78 -24 -27 -3 -36
61 20 25 95 -55 127 91 54
-83 30 -122 -38 -39 -33 73 -3
-99 -50 -49 117 17 -36 -3 -62
127 69 47 80 -127 32 85 -49
-57 -127 -124 21 77 -80 80 84
127 -27 -64 -88 -51 52 -59 48
42 -12 -62 94 -75 -12 -99 63
71 -17 32 104 -83 -48 -12 108
-5 -8 -116 88 -30 90 122 66
0 77 103 -10 29 28 -127 -27
21 78 -103 -14 -1 -73 -78 15
-64 43 -69 68 -3 69 -71 -10
-68 -1 42 2 -6 29 0 -18
69 -4 -31 -19 103 -54 -110 -33
-87 79 73 -31 -81 -23 -84 55
115 21 -65 127 -108 127 14 29
24 -106 39 -67 -58 -82 -55 -127
-35 -29 -127 -31 62 9 22 -36

tfl.pseudo_qconst17 i1 [1, 7, 1, 32]
00000000: c92f 97ef 3d81 18a5 7fd7 7fd0 880b 4981
00000010: 60c0 671a 4581 84d9 8110 8b16 32cf 53b5
00000020: d2df c081 50e6 3360 0153 ce0b 5cba 4ac8
00000030: d7d6 43f1 7f8c fa38 ff81 7f33 0525 27e6
00000040: e33f 55d0 d447 813e 1454 bcf0 3eec adab
00000050: 2b63 a8ca d3cf e544 d458 b450 c9bd 4494
00000060: 81c4 29b2 03f8 eb91 bb9a 9a7f 47d8 a526
00000070: 9d7f 7f6f 23d5 477f 5522 a047 e630 d381
00000080: 497f 7f0b 5714 d11d 3f73 4d2f 400e 3017
00000090: f9ad 6669 911b 7f41 1e04 11c4 81b1 de82
000000a0: ff5f 1309 817b 1381 827f 2770 c488 c64e
000000b0: 9d4e 4d3d 01dd 864c deeb 1a81 c4f0 b7e5
000000c0: 41d9 23e6 e03b 7ab9 cc05 89a0 817f 7f3c
000000d0: 8168 2881 1d76 aa84 46c3 4792 867f 81d8
-55 47 -105 -17 61 -127 24 -91
127 -41 127 -48 -120 11 73 -127
96 -64 103 26 69 -127 -124 -39
-127 16 -117 22 50 -49 83 -75
-46 -33 -64 -127 80 -26 51 96
1 83 -50 11 92 -70 74 -56
-41 -42 67 -15 127 -116 -6 56
-1 -127 127 51 5 37 39 -26
-29 63 85 -48 -44 71 -127 62
20 84 -68 -16 62 -20 -83 -85
43 99 -88 -54 -45 -49 -27 68
-44 88 -76 80 -55 -67 68 -108
-127 -60 41 -78 3 -8 -21 -111
-69 -102 -102 127 71 -40 -91 38
-99 127 127 111 35 -43 71 127
85 34 -96 71 -26 48 -45 -127
73 127 127 11 87 20 -47 29
63 115 77 47 64 14 48 23
-7 -83 102 105 -111 27 127 65
30 4 17 -60 -127 -79 -34 -126
-1 95 19 9 -127 123 19 -127
-126 127 39 112 -60 -120 -58 78
-99 78 77 61 1 -35 -122 76
-34 -21 26 -127 -60 -16 -73 -27
65 -39 35 -26 -32 59 122 -71
-52 5 -119 -96 -127 127 127 60
-127 104 40 -127 29 118 -86 -124
70 -61 71 -110 -122 127 -127 -40

tfl.pseudo_qconst19 i1 [64, 1, 1, 32]
00000000: cec1 cea7 89b0 7122 6684 071e b3a1 815b
00000010: 8b1f a448 f5c4 363e 53f2 acd8 0692 146a
00000020: ccf4 ba55 50cf ee16 b28b fb9a d9cb deeb
00000030: 5c21 0a71 188c de77 7f42 8407 ff59 3a2e
00000040: 33e1 f720 dfd8 10a9 cd37 c181 3b2f 10a4
00000050: 13fd 05ef 41ec 26e9 d2ff d6fc f156 2cb4
00000060: d740 a34b 39a6 b2c9 05e7 ba4a fff4 b455
00000070: b1de aaca 1ba6 5a3a 45c5 81fa fac6 e1e5
00000080: 4503 e5ba 35df 40b7 2b14 0ae1 a0a0 4dd3
00000090: c111 6271 7d5b 2809 3b81 2774 11b3 2855
000000a0: 9a7f 4e61 a6a9 4ecf 3319 8fce 5a6b 55c2
000000b0: dc5e a025 8801 9f38 896a 912b af82 618a
000000c0: e4d1 d5e6 053a 12ab b449 eb0c 35c8 daf1
000000d0: 13e4 bd3a 54cb 81ff 1703 46fb d9b4 a1b7
000000e0: 2622 3604 21cc c8d3 4730 f92c 35e3 18e5
000000f0: 1b57 33c2 28b2 fb3e 9fae 231d 8134 a411
-50 -63 -50 -89 -119 -80 113 34
102 -124 7 30 -77 -95 -127 91
-117 31 -92 72 -11 -60 54 62
83 -14 -84 -40 6 -110 20 106
-52 -12 -70 85 80 -49 -18 22
-78 -117 -5 -102 -39 -53 -34 -21
92 33 10 113 24 -116 -34 119
127 66 -124 7 -1 89 58 46
51 -31 -9 32 -33 -40 16 -87
-51 55 -63 -127 59 47 16 -92
19 -3 5 -17 65 -20 38 -23
-46 -1 -42 -4 -15 86 44 -76
-41 64 -93 75 57 -90 -78 -55
5 -25 -70 74 -1 -12 -76 85
-79 -34 -86 -54 27 -90 90 58
69 -59 -127 -6 -6 -58 -31 -27
69 3 -27 -70 53 -33 64 -73
43 20 10 -31 -96 -96 77 -45
-63 17 98 113 125 91 40 9
59 -127 39 116 17 -77 40 85
-102 127 78 97 -90 -87 78 -49
51 25 -113 -50 90 107 85 -62
-36 94 -96 37 -120 1 -97 56
-119 106 -111 43 -81 -126 97 -118
-28 -47 -43 -26 5 58 18 -85
-76 73 -21 12 53 -56 -38 -15
19 -28 -67 58 84 -53 -127 -1
23 3 70 -5 -39 -76 -95 -73
38 34 54 4 33 -52 -56 -45
71 48 -7 44 53 -29 24 -27
27 87 51 -62 40 -78 -5 62
-97 -82 35 29 -127 52 -92 17

tfl.pseudo_qconst21 i1 [1, 5, 1, 32]
00000000: acfb 7a5f 5d2c 7fd8 0281 1ce1 4a12 81b6
00000010: ec32 8b33 9afd 4984 ff22 bcf8 7fad 243b
00000020: 7f2f 32d3 b9c5 849d adcf e718 7fec 98aa
00000030: 5ad1 8139 7f73 8186 dd9d bcaf 38da 6c76
00000040: 4cd3 1f0c 1fa2 d981 e4ce 5b78 4694 af81
00000050: ab2b 8c4e 024e f81f 812f 30d7 3881 ca7f
00000060: 7c01 f1b3 8181 4465 7fa3 1050 1d81 3620
00000070: 7f7f 877f 6081 917f 22db 7f7f a1c7 a0db
00000080: 3081 8181 32ac c844 b810 7f7f d592 f458
00000090: df19 35b4 6493 c057 6181 5512 01ce 81c1
-84 -5 122 95 93 44 127 -40
2 -127 28 -31 74 18 -127 -74
-20 50 -117 51 -102 -3 73 -124
-1 34 -68 -8 127 -83 36 59
127 47 50 -45 -71 -59 -124 -99
-83 -49 -25 24 127 -20 -104 -86
90 -47 -127 57 127 115 -127 -122
-35 -99 -68 -81 56 -38 108 118
76 -45 31 12 31 -94 -39 -127
-28 -50 91 120 70 -108 -81 -127
-85 43 -116 78 2 78 -8 31
-127 47 48 -41 56 -127 -54 127
124 1 -15 -77 -127 -127 68 101
127 -93 16 80 29 -127 54 32
127 127 -121 127 96 -127 -111 127
34 -37 127 127 -95 -57 -96 -37
48 -127 -127 -127 50 -84 -56 68
-72 16 127 127 -43 -110 -12 88
-33 25 53 -76 100 -109 -64 87
97 -127 85 18 1 -50 -127 -63

tfl.pseudo_qconst23 i1 [32, 5, 1, 40]
00000000: 0150 ff21 ecd1 41cb 05c2 f224 34de ee15
00000010: b843 4933 3ed3 f3f0 fdc0 2d12 12e8 092a
00000020: 0430 46b3 3be9 5b2c 0a05 43ff 9804 0e0a
00000030: 2ffd f835 ddf7 d810 277f 0443 3bf7 490a
00000040: b326 c1bf 25aa 1439 25e4 443f 1ebd 19f3
00000050: 520c 28a8 f0df dd2a 3905 ffe8 00d3 e4d6
00000060: 3c2a 6a0c e6fe 3f04 3dc9 0cfd 3032 d223
00000070: dc1e f2ed 3333 5343 e5d8 c8d4 a303 f7d0
00000080: d7d1 0a36 3105 1cff e7fb 7749 3f58 d6df
00000090: cae6 05f4 b6e1 071d 133d d02f 0af9 eff9
000000a0: 22d4 04fe f8a2 cb4e ce16 f849 b837 f8c2
000000b0: 2044 3701 2213 e627 caae 2fd2 42d4 a9ba
000000c0: 0c19 06fb 26fb 2edc b1bc d813 fe16 f9fc
000000d0: 25b6 b8be b1de 96e5 f4d9 2dbd 5662 3cfc
000000e0: 24db f3fd dd40 cc24 ca15 faf0 3bd0 cdd5
000000f0: f0d9 666b 4e59 483d c201 3428 eeff a357
1 80 -1 33 -20 -47 65 -53
5 -62 -14 36 52 -34 -18 21
-72 67 73 51 62 -45 -13 -16
-3 -64 45 18 18 -24 9 42
4 48 70 -77 59 -23 91 44
10 5 67 -1 -104 4 14 10
47 -3 -8 53 -35 -9 -40 16
39 127 4 67 59 -9 73 10
-77 38 -63 -65 37 -86 20 57
37 -28 68 63 30 -67 25 -13
82 12 40 -88 -16 -33 -35 42
57 5 -1 -24 0 -45 -28 -42
60 42 106 12 -26 -2 63 4
61 -55 12 -3 48 50 -46 35
-36 30 -14 -19 51 51 83 67
-27 -40 -56 -44 -93 3 -9 -48
-41 -47 10 54 49 5 28 -1
-25 -5 119 73 63 88 -42 -33
-54 -26 5 -12 -74 -31 7 29
19 61 -48 47 10 -7 -17 -7
34 -44 4 -2 -8 -94 -53 78
-50 22 -8 73 -72 55 -8 -62
32 68 55 1 34 19 -26 39
-54 -82 47 -46 66 -44 -87 -70
12 25 6 -5 38 -5 46 -36
-79 -68 -40 19 -2 22 -7 -4
37 -74 -72 -66 -79 -34 -106 -27
-12 -39 45 -67 86 98 60 -4
36 -37 -13 -3 -35 64 -52 36
-54 21 -6 -16 59 -48 -51 -43
-16 -39 102 107 78 89 72 61
-62 1 52 40 -18 -1 -93 87

tfl.pseudo_qconst24 i1 [1, 22, 1, 64] scale=0.03221053 zero_point=-128
00000000: 8080 8080 8080 8080 8080 8080 8080 8080
00000010: 8080 8080 8080 8080 8080 8080 8080 8080
00000020: 8080 8080 8080 8080 8080 8080 8080 8080
00000030: 8080 8080 8080 8080 8080 8080 8080 8080
00000040: 8080 8080 8080 8080 8080 8080 8080 8080
00000050: 8080 8080 8080 8080 8080 8080 8080 8080
00000060: 8080 8080 8080 8080 8080 8080 8080 8080
00000070: 8080 8080 8080 8080 8080 8080 8080 8080
00000080: 8080 8080 8080 8080 8080 8080 8080 8080
00000090: 8080 8080 8080 8080 8080 8080 8080 8080
000000a0: 8080 8080 8080 8080 8080 8080 8080 8080
000000b0: 8080 8080 8080 8080 8080 8080 8080 8080
000000c0: 8080 8080 8080 8080 8080 8080 8080 8080
000000d0: 8080 8080 8080 8080 8080 8080 8080 8080
000000e0: 8080 8080 8080 8080 8080 8080 8080 8080
000000f0: 8080 8080 8080 8080 8080 8080 8080 8080
0.0 0.0 0.0 0.0 0.0 0.0 0.0 0.0
0.0 0.0 0.0 0.0 0.0 0.0 0.0 0.0
0.0 0.0 0.0 0.0 0.0 0.0 0.0 0.0
0.0 0.0 0.0 0.0 0.0 0.0 0.0 0.0
0.0 0.0 0.0 0.0 0.0 0.0 0.0 0.0
0.0 0.0 0.0 0.0 0.0 0.0 0.0 0.0
0.0 0.0 0.0 0.0 0.0 0.0 0.0 0.0
0.0 0.0 0.0 0.0 0.0 0.0 0.0 0.0
0.0 0.0 0.0 0.0 0.0 0.0 0.0 0.0
0.0 0.0 0.0 0.0 0.0 0.0 0.0 0.0
0.0 0.0 0.0 0.0 0.0 0.0 0.0 0.0
0.0 0.0 0.0 0.0 0.0 0.0 0.0 0.0
0.0 0.0 0.0 0.0 0.0 0.0 0.0 0.0
0.0 0.0 0.0 0.0 0.0 0.0 0.0 0.0
0.0 0.0 0.0 0.0 0.0 0.0 0.0 0.0
0.0 0.0 0.0 0.0 0.0 0.0 0.0 0.0
0.0 0.0 0.0 0.0 0.0 0.0 0.0 0.0
0.0 0.0 0.0 0.0 0.0 0.0 0.0 0.0
0.0 0.0 0.0 0.0 0.0 0.0 0.0 0.0
0.0 0.0 0.0 0.0 0.0 0.0 0.0 0.0
0.0 0.0 0.0 0.0 0.0 0.0 0.0 0.0
0.0 0.0 0.0 0.0 0.0 0.0 0.0 0.0
0.0 0.0 0.0 0.0 0.0 0.0 0.0 0.0
0.0 0.0 0.0 0.0 0.0 0.0 0.0 0.0
0.0 0.0 0.0 0.0 0.0 0.0 0.0 0.0
0.0 0.0 0.0 0.0 0.0 0.0 0.0 0.0
0.0 0.0 0.0 0.0 0.0 0.0 0.0 0.0
0.0 0.0 0.0 0.0 0.0 0.0 0.0 0.0
0.0 0.0 0.0 0.0 0.0 0.0 0.0 0.0
0.0 0.0 0.0 0.0 0.0 0.0 0.0 0.0
0.0 0.0 0.0 0.0 0.0 0.0 0.0 0.0
0.0 0.0 0.0 0.0 0.0 0.0 0.0 0.0

tfl.pseudo_qconst25 i1 [1, 16, 1, 64] scale=0.034848504 zero_point=-128
00000000: 8080 8080 8080 8080 8080 8080 8080 8080
00000010: 8080 8080 8080 8080 8080 8080 8080 8080
00000020: 8080 8080 8080 8080 8080 8080 8080 8080
00000030: 8080 8080 8080 8080 8080 8080 8080 8080
00000040: 8080 8080 8080 8080 8080 8080 8080 8080
00000050: 8080 8080 8080 8080 8080 8080 8080 8080
00000060: 8080 8080 8080 8080 8080 8080 8080 8080
00000070: 8080 8080 8080 8080 8080 8080 8080 8080
00000080: 8080 8080 8080 8080 8080 8080 8080 8080
00000090: 8080 8080 8080 8080 8080 8080 8080 8080
000000a0: 8080 8080 8080 8080 8080 8080 8080 8080
000000b0: 8080 8080 8080 8080 8080 8080 8080 8080
000000c0: 8080 8080 8080 8080 8080 8080 8080 8080
000000d0: 8080 8080 8080 8080 8080 8080 8080 8080
000000e0: 8080 8080 8080 8080 8080 8080 8080 8080
000000f0: 8080 8080 8080 8080 8080 8080 8080 8080
0.0 0.0 0.0 0.0 0.0 0.0 0.0 0.0
0.0 0.0 0.0 0.0 0.0 0.0 0.0 0.0
0.0 0.0 0.0 0.0 0.0 0.0 0.0 0.0
0.0 0.0 0.0 0.0 0.0 0.0 0.0 0.0
0.0 0.0 0.0 0.0 0.0 0.0 0.0 0.0
0.0 0.0 0.0 0.0 0.0 0.0 0.0 0.0
0.0 0.0 0.0 0.0 0.0 0.0 0.0 0.0
0.0 0.0 0.0 0.0 0.0 0.0 0.0 0.0
0.0 0.0 0.0 0.0 0.0 0.0 0.0 0.0
0.0 0.0 0.0 0.0 0.0 0.0 0.0 0.0
0.0 0.0 0.0 0.0 0.0 0.0 0.0 0.0
0.0 0.0 0.0 0.0 0.0 0.0 0.0 0.0
0.0 0.0 0.0 0.0 0.0 0.0 0.0 0.0
0.0 0.0 0.0 0.0 0.0 0.0 0.0 0.0
0.0 0.0 0.0 0.0 0.0 0.0 0.0 0.0
0.0 0.0 0.0 0.0 0.0 0.0 0.0 0.0
0.0 0.0 0.0 0.0 0.0 0.0 0.0 0.0
0.0 0.0 0.0 0.0 0.0 0.0 0.0 0.0
0.0 0.0 0.0 0.0 0.0 0.0 0.0 0.0
0.0 0.0 0.0 0.0 0.0 0.0 0.0 0.0
0.0 0.0 0.0 0.0 0.0 0.0 0.0 0.0
0.0 0.0 0.0 0.0 0.0 0.0 0.0 0.0
0.0 0.0 0.0 0.0 0.0 0.0 0.0 0.0
0.0 0.0 0.0 0.0 0.0 0.0 0.0 0.0
0.0 0.0 0.0 0.0 0.0 0.0 0.0 0.0
0.0 0.0 0.0 0.0 0.0 0.0 0.0 0.0
0.0 0.0 0.0 0.0 0.0 0.0 0.0 0.0
0.0 0.0 0.0 0.0 0.0 0.0 0.0 0.0
0.0 0.0 0.0 0.0 0.0 0.0 0.0 0.0
0.0 0.0 0.0 0.0 0.0 0.0 0.0 0.0
0.0 0.0 0.0 0.0 0.0 0.0 0.0 0.0
0.0 0.0 0.0 0.0 0.0 0.0 0.0 0.0

tfl.pseudo_qconst26 i1 [1, 2, 1, 40] scale=0.101960786 zero_point=-128
00000000: 8080 8080 8080 8080 8080 8080 8080 8080
00000010: 8080 8080 8080 8080 8080 8080 8080 8080
00000020: 8080 8080 8080 8080 8080 8080 8080 8080
00000030: 8080 8080 8080 8080 8080 8080 8080 8080
00000040: 8080 8080 8080 8080 8080 8080 8080 8080
0.0 0.0 0.0 0.0 0.0 0.0 0.0 0.0
0.0 0.0 0.0 0.0 0.0 0.0 0.0 0.0
0.0 0.0 0.0 0.0 0.0 0.0 0.0 0.0
0.0 0.0 0.0 0.0 0.0 0.0 0.0 0.0
0.0 0.0 0.0 0.0 0.0 0.0 0.0 0.0
0.0 0.0 0.0 0.0 0.0 0.0 0.0 0.0
0.0 0.0 0.0 0.0 0.0 0.0 0.0 0.0
0.0 0.0 0.0 0.0 0.0 0.0 0.0 0.0
0.0 0.0 0.0 0.0 0.0 0.0 0.0 0.0
0.0 0.0 0.0 0.0 0.0 0.0 0.0 0.0

tfl.pseudo_qconst27 i1 [1, 4, 1, 32] scale=0.5366883 zero_point=-128
00000000: 8080 8080 8080 8080 8080 8080 8080 8080
00000010: 8080 8080 8080 8080 8080 8080 8080 8080
00000020: 8080 8080 8080 8080 8080 8080 8080 8080
00000030: 8080 8080 8080 8080 8080 8080 8080 8080
00000040: 8080 8080 8080 8080 8080 8080 8080 8080
00000050: 8080 8080 8080 8080 8080 8080 8080 8080
00000060: 8080 8080 8080 8080 8080 8080 8080 8080
00000070: 8080 8080 8080 8080 8080 8080 8080 8080
0.0 0.0 0.0 0.0 0.0 0.0 0.0 0.0
0.0 0.0 0.0 0.0 0.0 0.0 0.0 0.0
0.0 0.0 0.0 0.0 0.0 0.0 0.0 0.0
0.0 0.0 0.0 0.0 0.0 0.0 0.0 0.0
0.0 0.0 0.0 0.0 0.0 0.0 0.0 0.0
0.0 0.0 0.0 0.0 0.0 0.0 0.0 0.0
0.0 0.0 0.0 0.0 0.0 0.0 0.0 0.0
0.0 0.0 0.0 0.0 0.0 0.0 0.0 0.0
0.0 0.0 0.0 0.0 0.0 0.0 0.0 0.0
0.0 0.0 0.0 0.0 0.0 0.0 0.0 0.0
0.0 0.0 0.0 0.0 0.0 0.0 0.0 0.0
0.0 0.0 0.0 0.0 0.0 0.0 0.0 0.0
0.0 0.0 0.0 0.0 0.0 0.0 0.0 0.0
0.0 0.0 0.0 0.0 0.0 0.0 0.0 0.0
0.0 0.0 0.0 0.0 0.0 0.0 0.0 0.0
0.0 0.0 0.0 0.0 0.0 0.0 0.0 0.0

tfl.pseudo_qconst28 i1 [1, 10, 1, 64] scale=0.029934486 zero_point=-128
00000000: 8080 8080 8080 8080 8080 8080 8080 8080
00000010: 8080 8080 8080 8080 8080 8080 8080 8080
00000020: 8080 8080 8080 8080 8080 8080 8080 8080
00000030: 8080 8080 8080 8080 8080 8080 8080 8080
00000040: 8080 8080 8080 8080 8080 8080 8080 8080
00000050: 8080 8080 8080 8080 8080 8080 8080 8080
00000060: 8080 8080 8080 8080 8080 8080 8080 8080
00000070: 8080 8080 8080 8080 8080 8080 8080 8080
00000080: 8080 8080 8080 8080 8080 8080 8080 8080
00000090: 8080 8080 8080 8080 8080 8080 8080 8080
000000a0: 8080 8080 8080 8080 8080 8080 8080 8080
000000b0: 8080 8080 8080 8080 8080 8080 8080 8080
000000c0: 8080 8080 8080 8080 8080 8080 8080 8080
000000d0: 8080 8080 8080 8080 8080 8080 8080 8080
000000e0: 8080 8080 8080 8080 8080 8080 8080 8080
000000f0: 8080 8080 8080 8080 8080 8080 8080 8080
0.0 0.0 0.0 0.0 0.0 0.0 0.0 0.0
0.0 0.0 0.0 0.0 0.0 0.0 0.0 0.0
0.0 0.0 0.0 0.0 0.0 0.0 0.0 0.0
0.0 0.0 0.0 0.0 0.0 0.0 0.0 0.0
0.0 0.0 0.0 0.0 0.0 0.0 0.0 0.0
0.0 0.0 0.0 0.0 0.0 0.0 0.0 0.0
0.0 0.0 0.0 0.0 0.0 0.0 0.0 0.0
0.0 0.0 0.0 0.0 0.0 0.0 0.0 0.0
0.0 0.0 0.0 0.0 0.0 0.0 0.0 0.0
0.0 0.0 0.0 0.0 0.0 0.0 0.0 0.0
0.0 0.0 0.0 0.0 0.0 0.0 0.0 0.0
0.0 0.0 0.0 0.0 0.0 0.0 0.0 0.0
0.0 0.0 0.0 0.0 0.0 0.0 0.0 0.0
0.0 0.0 0.0 0.0 0.0 0.0 0.0 0.0
0.0 0.0 0.0 0.0 0.0 0.0 0.0 0.0
0.0 0.0 0.0 0.0 0.0 0.0 0.0 0.0
0.0 0.0 0.0 0.0 0.0 0.0 0.0 0.0
0.0 0.0 0.0 0.0 0.0 0.0 0.0 0.0
0.0 0.0 0.0 0.0 0.0 0.0 0.0 0.0
0.0 0.0 0.0 0.0 0.0 0.0 0.0 0.0
0.0 0.0 0.0 0.0 0.0 0.0 0.0 0.0
0.0 0.0 0.0 0.0 0.0 0.0 0.0 0.0
0.0 0.0 0.0 0.0 0.0 0.0 0.0 0.0
0.0 0.0 0.0 0.0 0.0 0.0 0.0 0.0
0.0 0.0 0.0 0.0 0.0 0.0 0.0 0.0
0.0 0.0 0.0 0.0 0.0 0.0 0.0 0.0
0.0 0.0 0.0 0.0 0.0 0.0 0.0 0.0
0.0 0.0 0.0 0.0 0.0 0.0 0.0 0.0
0.0 0.0 0.0 0.0 0.0 0.0 0.0 0.0
0.0 0.0 0.0 0.0 0.0 0.0 0.0 0.0
0.0 0.0 0.0 0.0 0.0 0.0 0.0 0.0
0.0 0.0 0.0 0.0 0.0 0.0 0.0 0.0

tfl.pseudo_qconst29 i1 [1, 14, 1, 64] scale=0.03421052 zero_point=-128
00000000: 8080 8080 8080 8080 8080 8080 8080 8080
00000010: 8080 8080 8080 8080 8080 8080 8080 8080
00000020: 8080 8080 8080 8080 8080 8080 8080 8080
00000030: 8080 8080 8080 8080 8080 8080 8080 8080
00000040: 8080 8080 8080 8080 8080 8080 8080 8080
00000050: 8080 8080 8080 8080 8080 8080 8080 8080
00000060: 8080 8080 8080 8080 8080 8080 8080 8080
00000070: 8080 8080 8080 8080 8080 8080 8080 8080
00000080: 8080 8080 8080 8080 8080 8080 8080 8080
00000090: 8080 8080 8080 8080 8080 8080 8080 8080
000000a0: 8080 8080 8080 8080 8080 8080 8080 8080
000000b0: 8080 8080 8080 8080 8080 8080 8080 8080
000000c0: 8080 8080 8080 8080 8080 8080 8080 8080
000000d0: 8080 8080 8080 8080 8080 8080 8080 8080
000000e0: 8080 8080 8080 8080 8080 8080 8080 8080
000000f0: 8080 8080 8080 8080 8080 8080 8080 8080
0.0 0.0 0.0 0.0 0.0 0.0 0.0 0.0
0.0 0.0 0.0 0.0 0.0 0.0 0.0 0.0
0.0 0.0 0.0 0.0 0.0 0.0 0.0 0.0
0.0 0.0 0.0 0.0 0.0 0.0 0.0 0.0
0.0 0.0 0.0 0.0 0.0 0.0 0.0 0.0
0.0 0.0 0.0 0.0 0.0 0.0 0.0 0.0
0.0 0.0 0.0 0.0 0.0 0.0 0.0 0.0
0.0 0.0 0.0 0.0 0.0 0.0 0.0 0.0
0.0 0.0 0.0 0.0 0.0 0.0 0.0 0.0
0.0 0.0 0.0 0.0 0.0 0.0 0.0 0.0
0.0 0.0 0.0 0.0 0.0 0.0 0.0 0.0
0.0 0.0 0.0 0.0 0.0 0.0 0.0 0.0
0.0 0.0 0.0 0.0 0.0 0.0 0.0 0.0
0.0 0.0 0.0 0.0 0.0 0.0 0.0 0.0
0.0 0.0 0.0 0.0 0.0 0.0 0.0 0.0
0.0 0.0 0.0 0.0 0.0 0.0 0.0 0.0
0.0 0.0 0.0 0.0 0.0 0.0 0.0 0.0
0.0 0.0 0.0 0.0 0.0 0.0 0.0 0.0
0.0 0.0 0.0 0.0 0.0 0.0 0.0 0.0
0.0 0.0 0.0 0.0 0.0 0.0 0.0 0.0
0.0 0.0 0.0 0.0 0.0 0.0 0.0 0.0
0.0 0.0 0.0 0.0 0.0 0.0 0.0 0.0
0.0 0.0 0.0 0.0 0.0 0.0 0.0 0.0
0.0 0.0 0.0 0.0 0.0 0.0 0.0 0.0
0.0 0.0 0.0 0.0 0.0 0.0 0.0 0.0
0.0 0.0 0.0 0.0 0.0 0.0 0.0 0.0
0.0 0.0 0.0 0.0 0.0 0.0 0.0 0.0
0.0 0.0 0.0 0.0 0.0 0.0 0.0 0.0
0.0 0.0 0.0 0.0 0.0 0.0 0.0 0.0
0.0 0.0 0.0 0.0 0.0 0.0 0.0 0.0
0.0 0.0 0.0 0.0 0.0 0.0 0.0 0.0
0.0 0.0 0.0 0.0 0.0 0.0 0.0 0.0
